storage/reconstruct/wisconsin,texas,cornell,chameleon,squirrel,cora,pubmed,computers,photo_pretrained_model.pt (torch, 125312 bytes, 8 tensors)

backbone.layers.0.att_l.weight f4 [1, 128]
000000 22 2a 56 3d 2f 33 c1 bc 31 3c 07 b8 5b 72 ef bc
       0.052286275 -0.023583977 -3.2242566e-05 -0.029229334
000010 46 79 0d bd 7d 7e a6 3c 98 62 72 bd 72 78 9f 3c
       -0.034539483 0.020323986 -0.059176058 0.019466612
000020 7d ec 92 3c fc a2 16 3d 93 28 df bc c0 db 7e 3d
       0.017935032 0.036776528 -0.027241027 0.06222129
000030 f7 83 4b 3c 41 64 ca 3c 0d 86 34 3a 4b d9 8b bc
       0.0124216 0.024706008 0.000688643 -0.017071387
000040 b7 7b e4 ba 15 f4 fc bc 9d 69 ec bd 4b d4 66 bc
       -0.001743189 -0.030878106 -0.11543582 -0.0140887005
000050 d2 a1 93 bc 2a bf 6b bc 75 3e c8 bc 37 f3 dc bb
       -0.018021498 -0.014388839 -0.024443844 -0.0067428607
000060 6f 47 9e bb f3 2c 07 bd 22 86 0c 3d 46 2b dc 3d
       -0.004830293 -0.03300185 0.034307607 0.10750441
000070 d6 cd ec bc 37 63 0f bc 8b 73 2c 3d c9 af 1b bc
       -0.028906744 -0.008751682 0.042102378 -0.00950236
000080 14 50 70 bb 50 c4 4d 3d c2 7f 24 bc 76 96 98 bc
       -0.0036668824 0.050236046 -0.010040225 -0.018626433
000090 40 a8 d7 bc e3 83 93 3c 68 75 41 bf eb 46 b6 3c
       -0.026325345 0.018007224 -0.7556977 0.022250613
0000a0 3d 4f b6 3b 2f 78 7c 3d 2c 82 68 bd 8e 33 c1 3c
       0.005563645 0.061638054 -0.056764767 0.023584154
0000b0 92 c3 89 bd 9a 08 09 3e 47 ab 4a bd 63 90 ba 3c
       -0.06726755 0.13382187 -0.04947975 0.022773927
0000c0 e8 e6 87 bd 88 5d e5 bc 1a c7 8d 3c 5f d0 2c 3d
       -0.06635839 -0.0279987 0.017306853 0.042190906
0000d0 d9 66 11 3d cc 81 ad 3c 9d 67 a3 3d 25 df 28 3c
       0.035498474 0.021180056 0.07978747 0.010307108
0000e0 f5 b6 e4 bd 76 1a 29 3d 0e a2 ae 3c dc c8 18 3c
       -0.11167709 0.041285 0.021317508 0.009325232
0000f0 43 3e e3 3b bb 2e 11 bd 9d 79 ae bc 5f cf 49 3d
       0.0069349124 -0.035444956 -0.021298224 0.04927003
000100 4c 53 c3 bc 5d e4 19 bd ae fa ed bb 4d 43 96 3d
       -0.02384343 -0.0375713 -0.0072625494 0.07337055
000110 f2 82 8b 3c 95 7a 94 bb 20 17 13 3d b2 96 04 be
       0.017030213 -0.0045312145 0.035910726 -0.1294811
000120 38 61 b5 bd 54 0c 74 bc c9 fe 16 bd b2 01 ed 3c
       -0.08856434 -0.014895517 -0.036864076 0.028931472
000130 0a c5 ab 3c 3f b2 05 bc 1c e9 42 bd db dd 6b bc
       0.020967979 -0.008160173 -0.04758559 -0.014396156
000140 a9 74 82 bc 58 13 9a 3d 5f ac e0 3b 79 62 53 bd
       -0.015924769 0.07523221 0.0068564857 -0.051607583
000150 1c 27 8f 3c e2 13 1b bd 9a 80 30 3c 28 00 5c bd
       0.017474703 -0.03786076 0.0107728485 -0.053711087
000160 9a c6 f8 bb 2d 23 c2 bc c5 0e 34 3d 1e 0b f6 3c
       -0.0075920345 -0.023698414 0.043959398 0.030034598
000170 90 c1 42 3c 93 41 3d bf da 2f a4 bc aa 1c 12 bd
       0.011886969 -0.73928183 -0.020042349 -0.035671867
000180 ed e1 0f 3b 14 02 44 be 6d d3 d9 bd 86 41 01 3d
       0.002195473 -0.19141418 -0.106360294 0.03155663
000190 b5 6d 1d bd ce aa 0d bd 1d c9 b8 bd 88 2d 85 bc
       -0.038434703 -0.03458672 -0.09022734 -0.016257063
0001a0 3b 4b 71 3c c2 71 cc bc 63 3a 0d bd 89 bb 09 bd
       0.014727409 -0.024956588 -0.03447951 -0.033626113
0001b0 9d 02 3e bd 4e 2c ca 39 60 54 7f bc f0 82 b7 3c
       -0.04638921 0.00038561452 -0.015584081 0.022401303
0001c0 5d dd 48 3c 05 d3 1c 3c 2b 23 90 bd c5 f9 40 bd
       0.012259808 0.009571795 -0.07037958 -0.0471132
0001d0 ef c3 21 bc 79 62 0d bd 2c 99 7b 3d 99 64 55 3d
       -0.009873374 -0.03451774 0.061425373 0.05209789
0001e0 93 fa bb 3a d8 04 5e 3c c1 c1 34 3d 4f 2a 7e 3d
       0.0014341645 0.0135509595 0.04413009 0.062052067
0001f0 96 24 86 be 39 19 71 3d a8 91 8f bb 03 40 b9 bc
       -0.26199788 0.058861945 -0.0043813772 -0.022613531

backbone.layers.0.att_r.weight f4 [1, 128]
000000 0a 4e 06 bd 43 0f 34 3b 62 90 38 bd ad 35 e2 3c
       -0.032789268 0.0027474917 -0.04505957 0.027613485
000010 eb b5 31 bc 4a 05 a1 bd f6 7b d2 bb a9 43 23 bd
       -0.010846595 -0.07862337 -0.0064234687 -0.039859448
000020 c1 ad af bc 1b a2 a8 3c b7 cc 32 bc be 20 9a bc
       -0.021445157 0.02058511 -0.010913066 -0.01881444
000030 a6 a8 d2 bc 6e 56 bf bb b0 6d 30 bc 09 2a b9 3c
       -0.025715183 -0.0058391606 -0.010768339 0.022603052
000040 a1 ff 08 bd b2 66 dc bc a6 23 bf bd 75 10 19 bd
       -0.03344691 -0.026904438 -0.09332971 -0.03736921
000050 92 a2 f8 3c ad 4c f2 bc 93 60 87 3c 57 34 95 3d
       0.030350957 -0.029577577 0.016525542 0.07285374
000060 ff 7a 9d bb 4b e6 a0 bc 7f e8 46 bd c2 6c 89 3b
       -0.004805922 -0.019641062 -0.04856157 0.004193873
000070 9c 3c 9b bd e9 aa f9 bd c8 bf 58 3c a9 3a 2f bd
       -0.0757992 -0.12190802 0.013229318 -0.042780552
000080 fc 7e f1 bd af aa 91 3c 14 e6 b8 bc b6 b5 fe bd
       -0.117917985 0.017781584 -0.022570647 -0.12437002
000090 2a 78 89 3c 51 36 b5 37 15 35 83 bf ae 64 31 3c
       0.016780932 2.1602174e-05 -1.0250574 0.010827227
0000a0 54 c3 d2 3c 24 4e 3a bc 5c 15 bb be e1 05 fd bc
       0.025727905 -0.011371169 -0.36539733 -0.030886592
0000b0 16 67 5d bc 45 c3 d3 bb bb 66 06 3b 74 d2 1a bd
       -0.013513347 -0.006462487 0.002050801 -0.03779836
0000c0 0b af 5a be cb 64 bf bd 4d 08 d5 ba 8b db 9c bc
       -0.21355836 -0.093453966 -0.0016253084 -0.019147655
0000d0 94 17 22 3c cb 9a 8e bb 9b c4 4b bc 2f 06 01 bc
       0.009893317 -0.004351949 -0.012437011 -0.007875009
0000e0 ca 36 b1 bd 86 05 06 bd bc 7e 63 bd a0 47 c5 bc
       -0.08653028 -0.03272011 -0.055540785 -0.024082005
0000f0 06 53 4a bd 84 3c 03 be 30 bc 0c 3d 60 45 9e 3c
       -0.049395584 -0.12816054 0.034359157 0.01932019
000100 70 87 8c bd 77 1a 23 3d e4 97 bc bc 6a 73 2a 3c
       -0.0686177 0.03982016 -0.023021646 0.010403493
000110 66 cb 58 3b 05 8d b9 bd b0 fd 9b bc ea 84 45 be
       0.003308022 -0.090601005 -0.019041866 -0.19288984
000120 2d 84 fb bd c7 0c 45 3c a1 91 11 bd 25 e0 fc 3b
       -0.1228107 0.012026972 -0.035539273 0.00771715
000130 28 e3 2a 3c 77 c3 46 3d f7 4f 33 3b 6b 13 a6 bb
       0.010430135 0.048526254 0.0027360895 -0.005068233
000140 ac 59 d4 ba 21 d8 c3 3a 7a ce 95 bd a1 66 cd bd
       -0.0016201041 0.0014941731 -0.07314773 -0.100293405
000150 9c b6 26 bd b9 65 22 bd 54 0d e1 3b db ab 15 bc
       -0.040701494 -0.03964779 0.006868044 -0.009135212
000160 7b 49 29 bc e7 fc 94 3b bc 56 a5 3c 5d ea 92 bc
       -0.0103324605 0.00454675 0.02018296 -0.017934019
000170 28 ae bc bc fa 5b 54 bf 6d e8 29 bd ee 75 10 3c
       -0.023032263 -0.82952845 -0.041481424 0.008817179
000180 ab dc ad 3b fa 81 a4 3c 68 46 cb bc 11 12 59 bd
       0.0053058467 0.020081509 -0.024813846 -0.052995745
000190 cb b6 b4 bb 3f 71 d5 bc df a4 ef 3a 2c 73 11 bd
       -0.0055149547 -0.026054977 0.0018283388 -0.035510227
0001a0 98 98 46 3b 3a 6b 23 3d 86 c2 d4 bb 24 b4 cb be
       0.0030303355 0.03989718 -0.0064929156 -0.39785874
0001b0 32 68 c4 bc 7c 63 14 3c 96 1c cd 3b ca df 9e bd
       -0.023975465 0.009056922 0.006259511 -0.07757528
0001c0 9e d7 04 bc d3 a5 54 bd 16 d0 d6 bc 46 be 86 3c
       -0.008108048 -0.051915955 -0.02622227 0.016448151
0001d0 3c b4 44 bd 0a 7f 7f bb b3 c0 b6 3b 04 59 17 3c
       -0.048023447 -0.0038985633 0.0055771708 0.009237532
0001e0 0a b1 72 bc 73 ca c1 3b c1 30 c9 bc 96 f6 46 bd
       -0.014812717 0.0059140264 -0.02455938 -0.048575006
0001f0 43 e8 4b bc 26 18 15 bd 9a 71 b3 bc 27 6a b5 bc
       -0.012445512 -0.036399983 -0.021904755 -0.022145344

backbone.layers.1.att_l.weight f4 [1, 128]
000000 4a c1 00 3d 07 88 ae bc ab b4 c3 bc 6d d7 87 3d
       0.031434335 -0.021305097 -0.02388986 0.06632886
000010 81 a4 b7 bd 61 d2 fd bc 60 a7 79 bd c8 27 08 3d
       -0.089669235 -0.030984106 -0.060950637 0.033241063
000020 94 4c dc bc 09 28 0b 3b 67 04 f5 be 99 35 95 bd
       -0.026891984 0.002123358 -0.4785492 -0.072856136
000030 b4 df 2c 3c 6d 37 ee bc 76 bb 22 3c a2 15 30 3d
       0.010551382 -0.029079163 0.0099323895 0.04298938
000040 1f d8 a4 bc 0e 82 f7 3d 81 07 c5 bd a2 bb a1 bc
       -0.020122586 0.12085353 -0.09620572 -0.01974279
000050 f2 00 89 bc 6a 50 7f bc c8 40 d3 3c 3c f2 8e b9
       -0.016724084 -0.015583137 0.025787726 -0.0002726483
000060 f6 62 89 bd d3 36 3e bd 30 fe 8b bc 47 54 94 3d
       -0.067083284 -0.046439003 -0.01708898 0.07242637
000070 a5 d6 b9 3b 5e 15 aa bd 56 44 52 3d 84 d7 62 bc
       0.0056713396 -0.08304857 0.0513347 -0.013845328
000080 a6 ca 6f bd 79 f5 a3 3c 79 41 6c bc ad c9 80 bd
       -0.05854287 0.020014511 -0.014419907 -0.062884666
000090 02 85 d6 3d b0 b6 0c bd 74 14 18 bf b0 b2 bd bc
       0.10474588 -0.034353912 -0.5940621 -0.023156494
0000a0 8c 5d 41 3d df 76 ed 3c a1 34 e4 bd 0a 29 bc bb
       0.047208354 0.028987346 -0.11142851 -0.005742197
0000b0 fa 9f ff bc 40 e7 6a bf 57 c8 95 3c 47 e8 19 3d
       -0.031204212 -0.9175911 0.018284006 0.037575033
0000c0 cb 91 0b bd 5f f6 81 bb 26 07 ce 3c 20 0d ae 3c
       -0.034074586 -0.0039661373 0.025149893 0.021246493
0000d0 05 5c 8b 3c 8a 97 68 3d fe 20 fd bb bc 54 c7 3d
       0.017011652 0.056785144 -0.0077248802 0.09732959
0000e0 08 d7 52 bd cd cb bc 3c b0 69 0f bd 54 9d 88 3d
       -0.0514746 0.023046399 -0.0350129 0.06670633
0000f0 02 5d c8 3c 0e a8 15 bc 37 d0 85 3d af d7 4c bb
       0.024458412 -0.009134306 0.065338545 -0.0031256487
000100 4f 34 4a 3d c0 ca 83 3c 33 79 a7 bd fd ed aa 3c
       0.04936629 0.01608789 -0.08177414 0.020865435
000110 a7 ba 23 3d f1 60 04 3d 98 eb b3 3d a9 3e 05 be
       0.039972927 0.032319013 0.0878517 -0.13012184
000120 ec 56 21 3d 48 13 9d bb 01 88 0b bd 69 84 29 3c
       0.039389536 -0.0047935583 -0.03406525 0.01034651
000130 2f 31 98 bc 14 ce f4 3c 89 66 be 3d 43 63 93 bc
       -0.01857814 0.029883422 0.09296901 -0.017991668
000140 40 f4 11 3d 7f 7c 2f 3c 2c 06 d1 bc 02 9b 3b 3d
       0.035633326 0.0107108345 -0.025515638 0.045802124
000150 b6 ec f1 3c cb 74 99 bc b6 61 11 3d a2 ce c2 bc
       0.029531818 -0.018732449 0.035493575 -0.02378017
000160 c3 82 19 3d d9 27 d9 3d 11 47 40 3c df 00 09 3d
       0.03747822 0.106033035 0.011735694 0.033448096
000170 08 88 00 3c c0 19 04 bf d7 0c 24 bd 70 46 c5 bb
       0.007844932 -0.5160179 -0.040051308 -0.0060203597
000180 e0 f9 01 bd 10 d0 41 bf 0b dd b3 bd c6 c6 94 bb
       -0.03173244 -0.75708103 -0.08782395 -0.004540297
000190 26 98 8a bb 21 d2 9e bd 76 f4 1c bd 25 75 21 3c
       -0.0042295633 -0.07754923 -0.038319074 0.00985459
0001a0 dd 12 67 bc 8b e7 4f 3d 02 39 84 3d e2 0b 2d bf
       -0.014103618 0.050757926 0.06456186 -0.67596257
0001b0 31 5f 4f bc 1d 5f 34 bd 20 d5 23 3d 4a 71 00 bd
       -0.012656973 -0.04403602 0.039998174 -0.03135804
0001c0 f6 f8 95 3c ab 36 c4 3c ca fd b2 bd 8e c1 50 3d
       0.01830719 0.023951849 -0.08739813 0.050965838
0001d0 5b ee 86 3d eb 7c 8a 3c 04 52 43 bc af 17 38 3d
       0.065884314 0.016905269 -0.0119214095 0.04494446
0001e0 4e 03 41 bc 13 b6 42 3c c3 56 8e 3c 7e a5 7f 3d
       -0.011780573 0.01188423 0.017375356 0.062413685
0001f0 2f 62 53 bf b3 4e fb 3a e9 11 75 bc db 10 fa bc
       -0.8257169 0.0019173234 -0.014957883 -0.030525615

backbone.layers.1.att_r.weight f4 [1, 128]
000000 de de 06 3d b9 80 04 3d 25 b0 a9 3c ce 9c 2c bd
       0.032927386 0.032349322 0.020713875 -0.042141728
000010 be a0 7c bb 66 d1 d5 bc eb f2 ea bb 41 49 ae 3b
       -0.0038547958 -0.026100826 -0.0071700714 0.005318791
000020 d8 15 30 3d a0 b2 d0 b9 3d b1 ac 3e 5a 83 06 3e
       0.04298958 -0.00039805938 0.33728972 0.13136044
000030 3a d1 07 ba ef e5 99 3c af e3 dd 3b 6e 5a 71 bb
       -0.00051810185 0.018786399 0.0067715268 -0.0036827582
000040 7f 46 f2 b9 4d ca c3 bd 98 71 6a bd 83 13 8c 3b
       -0.0004621036 -0.0956007 -0.057237238 0.004274787
000050 71 ce 0b 3c c9 78 08 bc 8c b9 fd 3c 81 b5 ca bc
       0.008533106 -0.008329579 0.030972265 -0.024744751
000060 d3 7c cb 3c 84 d6 0d bc 4c 7c 5e bb 33 46 7e 3d
       0.024839794 -0.008657102 -0.0033948598 0.062078666
000070 1f 17 27 bd 0c fc 69 bd cb 81 42 bd 2d 17 bf 3b
       -0.040793534 -0.057125136 -0.04748706 0.00583162
000080 dc 06 1a bc 95 79 87 bc 68 ec c4 3b af 14 20 be
       -0.009401049 -0.016537467 0.006009627 -0.1563289
000090 b0 f7 8e bd 29 fb 81 3d 80 08 40 bf 27 ec cc 3c
       -0.069808364 0.06346733 -0.7501297 0.02501495
0000a0 9f 51 75 bb f2 53 60 3c c3 71 3b be 82 91 93 3c
       -0.0037432683 0.013691889 -0.18305115 0.01801372
0000b0 10 ab c8 3b 95 e1 11 3f 3f b0 4f bd dc 29 08 bb
       0.006123908 0.56984836 -0.05070519 -0.0020776903
0000c0 33 51 dd bd a5 3f 0d bd 7e a8 40 3c 34 84 83 3d
       -0.10806503 -0.034484524 0.011758922 0.064217
0000d0 66 84 d8 bc 33 74 e4 3b 17 15 63 3d c6 9d 0e bd
       -0.02643032 0.00697186 0.055440035 -0.034818433
0000e0 fd 5e 60 bd b9 cc 12 bd bb 53 8d bc 72 78 19 bd
       -0.054778088 -0.03583977 -0.01725184 -0.03746838
0000f0 56 b3 b5 bc 5a d1 2c bd 45 24 6c bd 8e d1 34 bc
       -0.02218024 -0.04219184 -0.057651777 -0.01103629
000100 d6 be a5 3b 1c 73 7e bb 97 fb ea 3c 79 68 2e 3c
       0.00505815 -0.0038825935 0.02868442 0.010645025
000110 f8 69 d6 bb 1b 29 74 bc df 25 2d bd 21 de 09 be
       -0.006543394 -0.014902378 -0.042272445 -0.13463642
000120 b4 a1 28 be fa 51 ec bb 54 d1 19 bc c5 36 c6 3b
       -0.16467935 -0.007211921 -0.009388287 0.0060490095
000130 6b 0b 7d 3c f1 f4 f3 3b 6b 76 2f bd 73 7e d2 3c
       0.015444617 0.007444971 -0.04283754 0.025695061
000140 13 b4 c2 bc f1 f6 33 bc a3 a5 80 3d 50 10 b6 3b
       -0.023767507 -0.010984168 0.06281593 0.005556144
000150 d3 3d cb bc 7a 81 85 bc 93 d2 9e bb c9 cf a8 bb
       -0.024809754 -0.01629709 -0.0048468797 -0.005151723
000160 72 2f db 3a 5a 6d 00 bd 5b 32 68 bc 88 37 9a 3c
       0.0016722514 -0.031354286 -0.014172162 0.018825307
000170 d2 53 c8 3c 83 9e 1c bf 51 05 70 b9 79 59 63 3b
       0.024454031 -0.6117937 -0.00022890164 0.003469078
000180 2c 73 ad 3c 18 4a 9c 3e 16 33 f4 bc f4 4a 25 bb
       0.021173082 0.3052528 -0.029809516 -0.0025221677
000190 ff cf f3 bb af 11 6e 3c 65 8a df 3b 9a 39 2d bc
       -0.0074405666 0.014530583 0.006821918 -0.010572815
0001a0 52 88 9e 3c 13 57 72 bd b1 de bf 3c 1e f6 f2 be
       0.019352112 -0.05916507 0.023421617 -0.47453398
0001b0 06 d7 5c 3b b1 a7 cb 3c 59 44 01 bc 7d 5c 7d b9
       0.00336975 0.024860235 -0.0078898305 -0.00024162415
0001c0 81 3f 31 3c 58 44 1d bc 3e 04 60 3c 03 15 30 bc
       0.010818363 -0.009598814 0.013672886 -0.010747197
0001d0 06 37 87 bc 81 07 8b bd 6b 52 bb 3d 56 fc 02 bd
       -0.01650573 -0.06788541 0.09146579 -0.031978928
0001e0 d0 79 45 bd 6e c9 e7 bb 72 77 87 3c c1 2f e1 3c
       -0.048211873 -0.007073573 0.016536448 0.027488591
0001f0 e8 cc cb bd 52 3d a7 3d a6 cf b0 bb 82 e9 0a 3d
       -0.09951192 0.08165993 -0.0053958474 0.033914097

backbone.t1.weight f4 [128, 100]
000000 0f e7 c4 bc 63 43 4a bd 34 ba 9f bd e2 9e 26 be
       -0.024035959 -0.04938067 -0.07799187 -0.16271546
000010 e9 c1 f2 be 47 11 2c bc 65 8d 3b be 04 9f a0 3e
       -0.47413567 -0.010502166 -0.18315656 0.3137132
000020 2d c8 60 3d 69 cd de bc 19 c6 89 3c e2 39 e0 bd
       0.054878403 -0.027197557 0.016818093 -0.1094854
000030 41 80 a6 3e 69 58 d6 bd c1 52 d0 be fc 74 1e be
       0.32519725 -0.10466082 -0.40688136 -0.15474313
000040 c0 a7 3e bd c9 29 0f 3c e9 35 df 3d f7 ba 96 3d
       -0.046546698 0.00873799 0.108989544 0.073598795
000050 24 97 27 3e 9c 68 08 3d 2d cf 65 be 4f e5 26 bd
       0.1636625 0.03330289 -0.22442313 -0.04074603
000060 88 de 73 bd 56 1c 83 3d 1b 2a 62 3d 86 98 b2 3e
       -0.059538394 0.06401889 0.055215936 0.3488199
000070 86 0b 81 3e 20 c7 77 be 22 7b 61 3c 9d a1 d8 3e
       0.25204104 -0.24197054 0.013762267 0.423108
000080 50 d4 36 bd 83 12 23 3e 83 8c c9 bc 90 60 0e bd
       -0.04463607 0.1592503 -0.024603134 -0.034760058
000090 5f 26 06 bd 1e be 66 3d 10 61 cf bd b2 2f 82 be
       -0.032751437 0.056333654 -0.10125935 -0.25427014
0000a0 c1 7f 26 3e 8a 77 55 3e 37 ef 87 bd b4 56 d5 bd
       0.16259672 0.20846382 -0.066374235 -0.10416928
0000b0 4d f0 42 3d 2e 2d 87 be e9 32 ff 3b 5c 9b a2 bc
       0.04759245 -0.26401657 0.0077880514 -0.019849472
0000c0 2d 33 14 3e 75 ff ac 3d f8 e8 b8 3d b1 15 62 37
       0.14472647 0.08447162 0.0902881 1.34757e-05
0000d0 77 de 85 bc a9 30 88 3e 1f fe 5f be 83 8e 85 bd
       -0.016341431 0.26599625 -0.21874283 -0.065213226
0000e0 d3 c9 6b be 9a 41 24 3a af 16 88 3d 02 6b 82 bd
       -0.23026209 0.0006265879 0.066449516 -0.06368066
0000f0 27 23 1d 3e 3f 43 88 bc 6c 67 d2 3e fa ed 09 be
       0.15345441 -0.016633628 0.4109453 -0.13469687
000100 34 93 ae bd e2 c1 bc 3d 87 26 1b 3d f3 45 0d 3d
       -0.085241705 0.09216668 0.03787854 0.034490537
000110 57 12 ad 3e bd f8 64 ba 1c 05 33 3e f6 d4 77 be
       0.33803055 -0.00087345747 0.17482418 -0.24202332
000120 fe 75 c4 bd 80 65 ad 3d 3b 0c d8 3d 59 77 16 be
       -0.09592818 0.08466625 0.10549208 -0.14693965
000130 76 7c b4 3c 59 b9 19 3e 66 2d 67 3e ac ba 1e be
       0.022032004 0.15012111 0.22575912 -0.15500897
000140 56 53 84 3e 8f 64 9d 3d 47 c4 aa 3c 57 fe 26 be
       0.2584483 0.07685196 0.020845545 -0.1630796
000150 d3 31 c2 3c 93 52 cf bd 96 7d 4f be 12 06 4c 3e
       0.023705399 -0.10123172 -0.20262751 0.1992419
000160 78 78 05 3e 1a fa a2 be 00 1a a0 3d 33 be f6 3d
       0.13034236 -0.31831437 0.07817459 0.12047996
000170 51 c0 21 3d 5a 03 13 be 15 2d d5 3d 64 1a d1 bd
       0.039490048 -0.14356747 0.10408989 -0.10210112
000180 66 61 a0 bd ac 85 76 3d e3 6e 73 be 0e 7b 47 3e
       -0.07831077 0.060186073 -0.23772769 0.19480535
000190 1c bc c0 bc ca d6 7f 3d a6 5d 9c bd 74 d9 fc bd
       -0.023527198 0.0624607 -0.076350495 -0.123461634
0001a0 b2 41 ce bd 75 bd 04 3e 78 ee 4a 3e 93 6d 12 be
       -0.10071124 0.12962897 0.19817531 -0.14299612
0001b0 49 0a 72 3e 4c 69 1b 3e f2 7c 1c be 40 dd 63 bd
       0.23636736 0.15176886 -0.15282038 -0.055630922
0001c0 97 a8 de 3e 0b 88 a5 3d c0 63 4f 3e d0 a4 cf 3e
       0.43488 0.08082589 0.20252895 0.4055543
0001d0 f0 07 ba 3c d4 70 83 bc ff bd 65 be e1 72 82 3e
       0.022708863 -0.016045012 -0.22435759 0.2547827
0001e0 65 9f 33 3d 8c 61 b5 3d 8c 25 02 be d6 9b 8c bc
       0.043853182 0.08856496 -0.12709635 -0.017164152
0001f0 bd f9 48 be 64 98 81 3e 22 f3 a0 be 95 2e 8a be
       -0.19626518 0.25311577 -0.31435496 -0.26988664
000200 1e f2 c7 3d 41 a1 81 3e 41 52 c3 3d 44 8c 28 3e
       0.09762977 0.2531834 0.09537173 0.16459757
000210 08 b2 a9 bd c4 d5 15 3e 75 99 5e 3e 05 49 e7 bc
       -0.0828591 0.14632326 0.21738227 -0.02823306
000220 8f 5e 8c 3e 7b 66 ce 3b c4 b9 84 3d c4 f7 9a 3b
       0.27415892 0.0062988377 0.064807445 0.004729243
000230 07 16 3a be 9a 64 82 be ac c6 0b be 64 28 09 3e
       -0.18172465 -0.25467378 -0.13650006 0.13394314
000240 3a 73 90 3d f4 14 30 3e cb c4 fb bd 3d 1f 43 3e
       0.07053228 0.17195493 -0.12293395 0.19054885
000250 f6 4f 4f be 9c d4 92 3c ba be 9a 3c 7a 3b 00 be
       -0.20245346 0.017923646 0.018889774 -0.12522689
000260 73 03 89 3e 23 c2 c1 3d 98 d3 47 3d 80 db d7 bb
       0.26760444 0.09460857 0.048785776 -0.0065874457
000270 5a 74 2f 3e 92 bb 13 3e 4d c0 ca be a4 66 7e 3e
       0.17134228 0.14427021 -0.3959984 0.24843842
000280 30 27 9d 3d 3f 55 7d 3e f8 fd 02 3e aa 9a f8 bd
       0.0767349 0.2473955 0.12792194 -0.12138875
000290 84 77 b3 3e 97 f1 58 3d 98 1b 5f be 43 0c 02 3c
       0.3505212 0.052964773 -0.2178787 0.007937494
0002a0 44 d4 b7 3d af 1b 21 be 3d 9a 59 be 72 f3 8d bb
       0.08976033 -0.15733217 -0.21250243 -0.0043319995
0002b0 e2 e8 91 bc 0e 4d 1a be d7 58 18 be 79 ce b4 3e
       -0.017811242 -0.15068457 -0.1487764 0.35313776
0002c0 aa d1 15 be 1f 0b 6f 3e 74 87 67 bd de 7a ea 3d
       -0.14630762 0.23344086 -0.056525663 0.11449216
0002d0 da ce b0 3d 95 fd 71 bd 31 3f 15 be 06 f7 1b bc
       0.08633204 -0.059079725 -0.14574887 -0.009519344
0002e0 92 90 15 3e 20 0d 1e be c3 d3 13 3d 36 30 9a 3e
       0.1460593 -0.15434694 0.036090624 0.30114907
0002f0 0c 83 4c be a8 98 9e 3e e2 81 9c 3d 2a 2a 36 bd
       -0.19971865 0.30975842 0.07641961 -0.044473805
000300 55 11 18 bd 72 76 92 3e f8 be d5 3d 35 b4 03 bd
       -0.037125904 0.28605992 0.10436815 -0.03215428
000310 42 dc 15 be f7 e4 ae 3d 7c 72 74 3b be 8b 21 bd
       -0.14634803 0.08539765 0.0037299683 -0.03943991
000320 4e f6 63 bc 7f 0f 7a 3e 48 14 7d 3e 2b 85 67 3e
       -0.013913704 0.24419974 0.24714768 0.22609393
000330 6b b5 de 3e da 97 46 3e 87 68 1e 3d 75 16 a8 3e
       0.43497786 0.19393864 0.038673904 0.32829633
000340 68 95 c6 be 22 17 ae be a3 95 28 3b 88 fa 15 3e
       -0.38785863 -0.34002024 0.0025723956 0.14646351
000350 6c 6e 32 3d 7d 46 0a be 45 4e 21 3d 61 7a 3e be
       0.043562338 -0.13503452 0.039381284 -0.18601371
000360 7d fb 85 be 2f 34 c2 3c ab 83 aa 3e 3f e9 94 be
       -0.26168433 0.023706524 0.3330358 -0.29084203
000370 f5 3a da 3d 6c 0a da bd 63 7c b0 bd dc db 07 be
       0.106557764 -0.10646519 -0.08617475 -0.13267463
000380 8a 9f d2 3d 3c 12 c9 bd 01 06 20 3e 01 9f cd bd
       0.10284336 -0.09817931 0.1562729 -0.10040093
000390 0b 03 2d be 5b 14 a0 3d cb 02 1d 3e eb 56 48 be
       -0.16895692 0.078163825 0.15333097 -0.19564407
0003a0 3b 87 b6 3c e8 dd 34 be 9d a2 ae bd 14 f8 18 be
       0.02228128 -0.17662776 -0.0852711 -0.14938384
0003b0 5a ae 89 be c2 70 0f be 32 94 d2 3d 90 34 80 3d
       -0.26890832 -0.14007857 0.10282172 0.062600255
0003c0 e0 97 37 3e 0a de d5 bd 98 d4 02 3e 20 59 bf bd
       0.1792903 -0.10442741 0.1277641 -0.09343171
0003d0 65 67 8c bd ba b9 16 3e 1b 0a c6 3d 56 d7 ed 3c
       -0.068556584 0.14719287 0.09669896 0.029033344
0003e0 84 7b 51 3d 62 2e bc 3d 22 46 04 bb ed 6b 33 3e
       0.051143184 0.09188534 -0.0020183404 0.17521639
0003f0 95 46 55 3b ee 7f 0e 3c e3 2b 75 bd 1d 37 e4 3c
       0.003254329 0.008697493 -0.059856307 0.027858311

backbone.t1.bias f4 [128]
000000 9f 52 28 3c 95 71 30 3c 65 f5 27 bb d0 da 6e bd
       0.010273605 0.010769268 -0.0025628444 -0.058314145
000010 61 86 44 bf 7e ae cb bd 34 dd 34 bf 95 a5 95 3b
       -0.76767546 -0.09945391 -0.7065003 0.004566858
000020 f8 3e 9d be 5d e3 bd 3a 6a 2e c7 be 9f 59 39 bd
       -0.30712104 0.0014487315 -0.389026 -0.045251485
000030 3c f6 ea bc 2f 7a 8a bd ce bf 18 bd 82 7d 0f 3b
       -0.028681867 -0.06761586 -0.037292294 0.0021894877
000040 86 0f b3 bd 15 d8 99 3c 80 f5 93 bf 62 ea 9b 3b
       -0.08743195 0.018779794 -1.1559296 0.004758165
000050 b6 aa f0 bd 17 b0 de be cb 53 9d 3c eb eb 23 be
       -0.117513105 -0.4349372 0.019204995 -0.16007964
000060 f2 5b c5 bd f0 95 02 be 39 ad 02 bc be 89 04 3b
       -0.09636678 -0.12752509 -0.00797587 0.0020223702
000070 10 65 23 bf 19 56 2a bf e3 3c 05 be 8b 52 99 bd
       -0.63826084 -0.66537625 -0.13011508 -0.07486447
000080 23 53 f9 be 71 57 82 bd 20 db 4c 3c 38 f2 20 bc
       -0.4869624 -0.063643344 0.012503415 -0.009823374
000090 cb 92 65 bd cc 00 66 bd 7b 40 49 bf 71 3f 13 be
       -0.056048196 -0.056153104 -0.78614014 -0.1437967
0000a0 aa b7 f5 3b df f6 22 3a 1b 79 49 bf fe e9 c1 3b
       0.007498701 0.0006216596 -0.7870042 0.0059177866
0000b0 b9 83 92 be fe 68 c3 be 69 7f 9d 3b f2 e1 13 3c
       -0.2861612 -0.3816604 0.0048064482 0.0090260375
0000c0 ab 91 33 3c 2f 48 e7 3b e5 ce 35 3c c6 69 c4 3a
       0.010960023 0.0070581655 0.011096691 0.0014985136
0000d0 86 1a 5d be 22 e0 95 3c 6e 11 8c 3b 70 4b 04 3c
       -0.21592149 0.018295351 0.0042745387 0.008074626
0000e0 09 91 07 bf 70 ca 2d 3c 59 cb 6c 3a 28 53 61 bd
       -0.5295568 0.010607347 0.00090329867 -0.055010945
0000f0 2c 15 48 3c 4e a9 a7 3c 4a 88 2e bd 7b 0a 50 be
       0.012212079 0.020466473 -0.042610444 -0.20316498
000100 56 f7 09 3c 99 e2 bf bd 09 2d 20 bf 72 78 a3 bd
       0.008420786 -0.09369392 -0.6256872 -0.079819575
000110 ad be 72 3c 30 12 eb 3b bb 53 9d bc 37 c6 ce bd
       0.014815968 0.007173799 -0.019204965 -0.100964
000120 b1 b8 1d 3c 4a b2 8d bd 4e 78 5b 3c 24 5a 0b be
       0.009626553 -0.069187716 0.013395382 -0.13608605
000130 b3 88 5b bd 55 30 24 be ff aa e0 3b cc 4f 3a bd
       -0.053597163 -0.16034062 0.006856322 -0.045486256
000140 f2 e8 9c bd cf b6 cc bb 4a c0 91 3b 49 08 0f 3b
       -0.07661618 -0.0062473784 0.0044479715 0.0021825007
000150 81 b3 c8 b9 83 4e 4f bf ff 2c 56 3c d5 a8 cb be
       -0.00038280713 -0.80979174 0.013072251 -0.39777246
000160 9a dc 5a 3c d4 4e 15 3b c2 ba f8 bd c4 f5 a6 3c
       0.01335826 0.002278258 -0.12144996 0.020380862
000170 26 eb 86 3c f7 87 33 bf d5 64 68 be 30 19 72 bd
       0.01646955 -0.7012934 -0.22694714 -0.059106052
000180 d0 fd 6e 3c 99 8f 4c be 7b 97 67 bf 1f bf 7e 3c
       0.014586881 -0.19976653 -0.90465516 0.0155484965
000190 54 9e d5 ba a0 47 49 bf 09 2d 47 bf 03 1e 70 3c
       -0.0016297796 -0.78624916 -0.77803093 0.014655593
0001a0 c4 d2 cc 3b ca a1 f0 bd 45 25 74 3c f0 af 5f bf
       0.006250711 -0.11749609 0.014901464 -0.87377834
0001b0 b1 c4 3b be 98 03 22 be 69 00 49 3c 52 42 00 bd
       -0.1833675 -0.15821683 0.012268164 -0.031313248
0001c0 97 ba 7e 3b f0 04 20 3a 81 48 6d bf f2 27 d9 3c
       0.003886854 0.00061042514 -0.9268876 0.026508305
0001d0 1c 6a 1c 3c 2d cb be bd d2 96 c0 3b 3e a5 34 be
       0.009546783 -0.093160965 0.005877354 -0.1764116
0001e0 d9 4d af 3b 9c 5a 77 bd 3e 86 b1 be 1d 0f cc 3b
       0.0053498563 -0.060389146 -0.3467273 0.0062273876
0001f0 1b 67 44 bf 0d 91 e8 3b aa e8 3b bd 22 96 53 be
       -0.76719826 0.0070973695 -0.045876183 -0.2066274

backbone.t2.weight f4 [128, 128]
000000 61 38 31 bd 13 81 e5 bd 25 02 29 3d 55 d4 d0 bd
       -0.043266658 -0.112062596 0.04126181 -0.10196749
000010 8c d4 05 bf 5e 80 31 3e d8 04 b0 bd 4a b7 96 bc
       -0.52277446 0.17334124 -0.08594674 -0.018397946
000020 33 dd 8d 3d 61 bf e6 3d 0b 60 81 bc 8c b7 04 3e
       0.06926956 0.112669714 -0.015792867 0.12960643
000030 91 b5 c1 bb 11 c4 09 bd 5f 25 b0 3e e1 6e 91 3e
       -0.005911537 -0.03363425 0.34403512 0.28404906
000040 d0 d2 2b be 04 b5 14 3d f3 77 68 3e 05 3a 35 be
       -0.16779637 0.036305442 0.22702007 -0.17697914
000050 4c 09 62 3e 83 bc bf 3c 9a c0 a0 bc 0f 2d 82 3e
       0.22073859 0.02340532 -0.01962309 0.25425002
000060 af dd 38 be b9 a4 ae 3c 38 d8 e6 bd 5e 13 b7 bc
       -0.18053316 0.02131878 -0.11271709 -0.022348102
000070 21 17 8b bd ec 70 43 3e f1 e1 12 3e 55 95 6c bd
       -0.06791521 0.19086045 0.14344002 -0.0577596
000080 65 94 d0 3d 28 53 39 3d a5 51 92 bd bc a3 9a 3e
       0.10184554 0.04524532 -0.07144479 0.30203044
000090 f4 41 8c 3b 5f 31 43 3e 12 c2 1b bd 88 2d ae 3d
       0.004280323 0.19061802 -0.038026877 0.08504778
0000a0 e6 8a 7d 3e 11 0d 13 bd eb b0 9b 3d c9 bb 26 3e
       0.24760017 -0.035901133 0.07602104 0.16282572
0000b0 fd 0b 94 3d e4 e8 aa 3b 57 07 36 bd e4 8c ac bd
       0.07228849 0.005215751 -0.044440594 -0.0842531
0000c0 2a 72 3b be 5e da 20 be 52 b3 fb 3d 3f 6e 6f 3e
       -0.18305269 -0.157083 0.12290062 0.233819
0000d0 97 e9 0a 3e e4 b6 94 3d 10 f5 b4 ba 26 db 39 3d
       0.1356567 0.07261446 -0.0013805944 0.04537501
0000e0 98 2d c9 bc 97 68 85 3d 16 1e 72 bc b2 fc c7 bd
       -0.024557874 0.065140896 -0.014777681 -0.09764995
0000f0 9f fa ad bd c3 12 dd 3b 8d c9 a1 bd 88 5d 9e 3d
       -0.08495068 0.0067466213 -0.07899771 0.077326834
000100 6d ea 00 be d5 26 05 3e a3 26 0c 3d 13 57 5e 3d
       -0.12589426 0.13003094 0.034216534 0.05428226
000110 73 0a d2 bd e8 04 04 3c df 92 8f bd ff 44 88 be
       -0.10255899 0.00805781 -0.07010435 -0.2661514
000120 a1 53 9c bd 9c d2 90 3d d1 8d 09 bd 27 3c dc 3d
       -0.076331384 0.070714206 -0.033582512 0.10753661
000130 6d 56 aa 3b 8c 01 95 3e d4 6d 00 be 1d c9 01 3c
       0.005198291 0.29102743 -0.12541896 0.007921484
000140 f3 c1 92 be cb d9 96 bc d0 34 2f bb fb 40 40 be
       -0.28663597 -0.018414399 -0.002673436 -0.18774788
000150 cd 48 a0 3d c2 05 67 be 71 30 3a 3e a8 dd ad be
       0.07826386 -0.2256079 0.18182541 -0.33958173
000160 86 e6 08 3e c6 31 1e 3d a2 c1 ad 3d 77 8f 59 3d
       0.13369188 0.038621686 0.08484198 0.053115334
000170 61 89 65 3d 39 28 0f bd f8 0d 57 3e e5 5a 84 3e
       0.056039218 -0.03495047 0.21001422 0.25850597
000180 6a b5 52 be 43 27 bf ba 68 4a 34 bd 8b 24 30 be
       -0.20577016 -0.0014583844 -0.04401627 -0.1720144
000190 ce 35 75 3d 2e 82 82 3e 71 4a 3b be 1a e5 66 bd
       0.059865765 0.25489944 -0.18290116 -0.056370832
0001a0 78 80 01 3e a2 02 db bd a9 c7 c8 bd 25 49 9b bc
       0.12646663 -0.106938615 -0.09803707 -0.018955776
0001b0 1f 1f 56 3e 9c 0a 8f 3e a6 dc 0f bc f0 e0 18 3e
       0.2091031 0.27937782 -0.008780634 0.14929557
0001c0 ec 40 ff 3c 26 b8 e1 bd dd 41 dc be 62 7c ba 3d
       0.031158887 -0.11021452 -0.43019 0.091057554
0001d0 5f 3c 86 bb 54 29 80 be 62 a4 c2 bb a0 45 ff 3d
       -0.0040965523 -0.2503153 -0.005940006 0.12464452
0001e0 07 7e 9f 3d c2 34 99 3d c6 78 c7 3e 47 6d 84 3e
       0.0778771 0.07480766 0.3895933 0.25864622
0001f0 88 9f 5d bc 16 b7 2f be 93 ac 85 bd 03 89 68 3d
       -0.013526805 -0.17159685 -0.065270565 0.05677129
000200 5d 4e 75 3e 83 41 9b bd e4 0e ad 3d 50 66 0e 3e
       0.23955674 -0.07580855 0.08450106 0.13906217
000210 a3 f9 6c be a0 c5 14 3e 0c 2c b0 3d d5 d2 63 be
       -0.23142104 0.14528513 0.08602151 -0.22248395
000220 22 82 ff bd 37 c6 bb bb 89 99 58 bd 09 b1 80 be
       -0.12475993 -0.005730416 -0.052880798 -0.25135067
000230 20 6c 37 be c8 6a 48 bd e7 0a d2 3d 00 15 1f 3e
       -0.1791234 -0.04892996 0.10255986 0.15535355
000240 d4 a4 a2 3e 2e 6e 03 3d 32 d6 b4 be 58 43 e0 3d
       0.3176638 0.032087497 -0.35319668 0.10950345
000250 3d a2 cd 3e b7 90 c0 3d bd de 81 3d 7a e8 ad 3e
       0.4016284 0.09402602 0.06341312 0.33966428
000260 d3 1c 42 be 69 6c 88 3e 6e 8f 80 be 91 35 a3 bd
       -0.18956308 0.2664521 -0.25109428 -0.07969201
000270 95 36 d5 3d 96 46 02 3c 3f cb 0c 3e ef f4 8d 3e
       0.10410801 0.007951399 0.13749407 0.27725932
000280 d3 fc 10 be c1 03 cb be bc 7d 5b 3d 7d fc 06 be
       -0.14158945 -0.39651302 0.053586707 -0.13182254
000290 e4 23 41 3d d3 e3 1a 3e 16 fb 98 bd 2e 7a c7 bd
       0.04715337 0.1512597 -0.07469766 -0.09740101
0002a0 80 a0 0a 3e 92 df 1c be 5d 84 1b be bd 85 72 bd
       0.13537788 -0.1531966 -0.15187211 -0.059209574
0002b0 3e da 12 3f 47 a6 eb bb f8 0f 00 be 45 5a 33 3c
       0.5736426 -0.0071914527 -0.12506092 0.010946815
0002c0 1f 0c b1 bc 4f 92 6e 3e 79 84 16 be c3 9e 12 be
       -0.021612225 0.23298 -0.14698972 -0.14318375
0002d0 dd 86 18 3e 8f f8 a4 bd 64 83 f2 3c 93 12 8a be
       0.14895196 -0.08055221 0.029603668 -0.26967296
0002e0 d4 05 09 3e a3 bc c0 3d 6b ad 50 3d fb cd 93 bd
       0.1338113 0.094109796 0.050946634 -0.07217022
0002f0 a3 8a 5c 3e 66 7f a5 bd 9b cd c3 3d 15 e9 00 bf
       0.2153726 -0.0808094 0.095607005 -0.50355655
000300 2d 94 c5 bd 7c 70 47 3e cb 80 1c be 5d 82 4f be
       -0.09647403 0.19476503 -0.15283506 -0.20264573
000310 2d ae 25 3e f9 46 12 3d 35 d9 82 3c 09 0a 81 be
       0.16179724 0.035712216 0.015972713 -0.2520297
000320 37 68 6d bd 5b 0c 53 be f2 3e 66 3e ce 75 13 3e
       -0.057960715 -0.20610182 0.22484949 0.14400408
000330 a1 f4 a1 3e 25 44 a6 3e 9e 43 34 3d 23 72 c9 bd
       0.3163195 0.32473865 0.044009797 -0.09836223
000340 8d 51 a7 3d 56 58 b4 be 18 ea 4b be 91 78 15 3e
       0.081698515 -0.35223645 -0.19913518 0.14596774
000350 91 99 a6 bd d5 f9 7b 3d 6d 6f a0 3c 2a 07 c4 be
       -0.08134759 0.061517555 0.019584382 -0.38286716
000360 42 b2 49 3d 7a de b8 bd f1 05 e1 be 77 90 93 bd
       0.049242266 -0.09026809 -0.43949845 -0.07205289
000370 bd 13 26 bd cc ef c4 bd 84 d6 ee bb 16 f4 9e 3c
       -0.040546168 -0.0961605 -0.007288756 0.019403499
000380 1c 45 75 3e 21 49 08 3c 1d 96 99 be 8d 7e 5f 3e
       0.23952144 0.008318217 -0.2999734 0.21825619
000390 c6 b4 f7 bc b2 ae 06 3f 00 20 c3 3c dc 5e a8 3d
       -0.030237567 0.52610314 0.02381897 0.08221218
0003a0 fc f2 57 3e 2c c8 0d 3e cf 8e 47 3e ba 41 19 be
       0.21088785 0.13845891 0.19488071 -0.14966479
0003b0 c1 f9 bf bd 60 55 8a 3e 8d b0 87 bd aa bc 08 3e
       -0.09373809 0.2701826 -0.06625471 0.1335322
0003c0 56 9c c6 3d 9b d6 81 bd 73 7d 90 be 34 bc 9b be
       0.096977875 -0.06339761 -0.2822071 -0.30417025
0003d0 8d 07 21 b9 c0 e7 42 be e6 9a 9a 3e 45 88 18 3e
       -0.0001535697 -0.19033718 0.30196303 0.14895733
0003e0 37 01 73 be 7d da 2a 3d a5 49 92 bc 65 27 08 3d
       -0.23730932 0.041712273 -0.017857382 0.033240695
0003f0 d9 4e cc bc d9 32 0d 3d d3 a6 b4 be a1 16 a1 bc
       -0.024939941 0.03447232 -0.35283527 -0.01966411

backbone.t2.bias f4 [128]
000000 eb 50 db ba 67 d0 0e bb 1d bb 3b 3a 21 0c 12 bb
       -0.001673249 -0.0021791698 0.0007161366 -0.0022285061
000010 7f bc 79 b9 19 0f ea ba 17 19 92 b9 13 0e c5 ba
       -0.00023816711 -0.0017857283 -0.00027865983 -0.0015034102
000020 72 5a 18 3b 0c 41 60 bb 87 d6 ec 39 1c 37 56 37
       0.002324727 -0.0034218458 0.00045173263 1.2768225e-05
000030 9f b4 33 3b 64 79 51 3a e4 18 e3 ba 40 68 ed 3a
       0.002742089 0.0007990806 -0.0017326144 0.0018112734
000040 70 6c 1b 3a d8 4f 3e 39 8f 83 90 ba db 38 23 bb
       0.0005928939 0.00018149556 -0.0011025536 -0.0024905715
000050 8b 64 be 3a 09 8b 23 bb c0 59 bc 3a 3b c8 95 3a
       0.0014525814 -0.0024954698 0.0014370009 0.0011427471
000060 22 70 fd 3a 5f ee 08 bb e1 4a d7 3a 5d 9c b5 3a
       0.0019335786 -0.0020894033 0.0016425514 0.0013855804
000070 eb 85 ca ba aa 84 75 39 2f 09 9a 3a 8d 15 73 ba
       -0.0015451288 0.00023414442 0.0011752005 -0.00092729257
000080 1c 97 f9 b9 a5 f6 95 b9 5a 65 fe 3a 02 9f ec b9
       -0.00047605566 -0.0002860326 0.0019408867 -0.00045131898
000090 f9 6d 8b ba 78 14 d6 3a 8c 34 d7 3a e2 3f 2f ba
       -0.0010637633 0.0016333004 0.0016418858 -0.00066852395
0000a0 e6 17 df 3a 1a d7 a3 ba 98 36 c5 3a 2a 6f 8e bb
       0.0017020672 -0.0012500018 0.0015046177 -0.004346748
0000b0 db 54 3f 39 71 71 c6 39 a5 8b 81 b9 ce 90 72 ba
       0.0001824679 0.00037850023 -0.0002470884 -0.0009253145
0000c0 26 b7 bb 39 64 75 00 bb 98 71 4d 3b c2 64 d9 ba
       0.00035803876 -0.001960122 0.0031348225 -0.0016585814
0000d0 0d 16 03 bb 65 92 be 3a 43 1d 01 3b c1 78 33 3a
       -0.0020002157 0.0014539479 0.001970128 0.0006846302
0000e0 d4 a9 cf 36 f8 72 0e 3b 13 e7 27 3b d5 c0 9a 39
       6.1888513e-06 0.0021736007 0.0025619909 0.0002951684
0000f0 a9 4b 4e 3a a9 49 c6 3a 19 d1 8f 38 da f7 0f 3b
       0.00078695506 0.0015128154 6.857719e-05 0.00219678
000100 23 08 4c 3a 31 f8 b7 3a 19 04 c7 3a 84 07 86 b9
       0.0007783195 0.0014035759 0.0015183716 -0.0002556407
000110 9b da d0 3a 63 4e e7 ba b9 4c b7 3a 1a 3f c9 ba
       0.001593429 -0.0017647262 0.0013984657 -0.0015353889
000120 94 b4 d7 3a d3 2d 94 ba d7 aa f1 ba d3 37 99 ba
       0.0016457015 -0.0011305161 -0.0018437755 -0.001168961
000130 79 c7 27 3a b0 8e ec 3a 58 11 8e ba cb d8 fd 3a
       0.0006400268 0.0018047895 -0.0010838909 0.0019366978
000140 7d a8 9d b9 8b 6d 19 b9 f2 d6 9c bb 73 38 91 3a
       -0.00030070907 -0.00014632025 -0.0047863657 0.0011079445
000150 d7 e7 78 38 94 2c d6 b9 e2 b4 24 bb ac 9d 87 b8
       5.9343725e-05 -0.00040850474 -0.0025132229 -6.46667e-05
000160 35 f3 56 b7 1a a8 28 ba a0 3c d5 3a d2 9e 35 3a
       -1.281202e-05 -0.00064337405 0.0016268678 0.0006928268
000170 08 22 e5 3a 17 ab a2 ba 1f 2f ab ba 1b b3 b5 3a
       0.0017481456 -0.0012410608 -0.0013060308 0.0013862582
000180 ff 01 8f 3a b6 21 0b bb c9 c9 06 ba 4a 6e ae ba
       0.0010910629 -0.002122981 -0.00051417627 -0.0013308015
000190 59 de 52 3b af ea 9f ba 40 2c 3f 3a 7b e2 e5 3a
       0.0032175987 -0.0012200678 0.00072926655 0.001753881
0001a0 07 f1 0d 3b 19 98 ca 3a 1e 11 3f 3b ad 5a 51 ba
       0.0021658556 0.0015456706 0.002915449 -0.0007986229
0001b0 21 05 29 ba 38 33 1a 3a 0d d9 1d ba e5 da 3c 39
       -0.00064476026 0.0005882266 -0.0006021418 0.00018010622
0001c0 61 2b 1b 39 02 18 b6 39 fc 68 36 bb 09 db a5 39
       0.00014798112 0.00034731632 -0.0027833572 0.00031634446
0001d0 68 f5 09 3a 0f af 6d ba 6f 99 e4 3a b2 d3 c6 3a
       0.00052627036 -0.0009066918 0.0017440746 0.0015169291
0001e0 1e 66 cc b9 03 7d 2d 3a 67 ab 31 ba 61 4a 2f b8
       -0.00038985995 0.00066180545 -0.0006777555 -4.1792522e-05
0001f0 8a 63 80 ba 46 29 49 39 ef 42 b9 39 92 92 92 3a
       -0.000979529 0.0001918423 0.0003533582 0.0011182597
