reconstruct/wisconsin,texas,cornell,chameleon,squirrel,citeseer,pubmed,computers,photo_pretrained_model.pt (torch, 125360 bytes, 8 tensors)

backbone.layers.0.att_l.weight f4 [1, 128]
0.00059567357 -0.00033256726 0.0046287305 -0.0014252281 0.010088184 -0.0056809597 -0.010148772 0.006032248
-0.009326054 0.0031897689 -0.020268407 0.00096069387 0.0018783945 0.0020379303 0.0056802807 0.0007034174
-0.0066001676 -0.004252204 -0.0055734655 -0.001447757 0.0011925137 -0.0033323285 -0.005186586 0.0151780145
-0.01694135 -0.010673369 -0.007542884 0.0061012325 0.00069840427 0.010613227 -0.0075400104 0.007448728
-0.010314503 0.0023054897 0.0038471923 0.00101576 -0.0051584486 -0.0017473195 0.007105396 0.0074403826
-0.005406939 0.007674869 0.0020171937 -0.005954313 -0.007004736 0.004974783 0.0020828168 0.00031745524
0.009417665 0.0039405846 0.0026371018 0.0006552573 -0.005437122 0.0091310255 -0.0011669479 -0.0045534535
-0.0024078207 0.0038574748 0.00026734945 -0.0039527505 -0.0077902474 -0.007958577 -0.0082397 -0.00039612703
-0.0039768303 0.004709336 -0.0001517546 -0.0009545455 -0.00016641135 0.0046418915 -0.0036957047 -0.0058848797
-0.0013372996 -0.0026886698 0.0045039393 -0.004379942 -0.00018070547 -0.004347085 -0.0035370956 -0.0007583932
-0.010237605 4.6067136e-05 0.006556647 3.4803314e-05 0.01796325 0.0020904457 -0.0031001444 -0.011151213
-0.002152546 0.0057552573 0.0033103286 -0.0011765867 0.00020559263 0.002301816 -0.005239167 0.0058465074
-0.006205403 -0.005057348 0.004041003 -0.022439089 -0.022867255 -0.002115537 -0.0031248045 0.000696773
-0.005144496 -0.0029123765 -0.00032064342 -0.02096121 0.011460845 -0.011258211 0.00081865664 -0.009256458
-0.012230353 -0.013388726 -0.0043112817 -0.0074110907 -0.004069753 0.004867388 0.0023008008 0.008584598
0.010663612 -0.0003305823 -0.0072669177 -0.0033309339 0.003290271 0.0035321522 -0.005837256 0.008197893
00000000: fa26 1c3a 6c5c aeb9 9bac 973b b8ce baba
00000010: e948 253c 5827 babb 0947 26bc 2aaa c53b
00000020: 4ecc 18bc 710b 513b ee09 a6bc 13d7 7b3a
00000030: 7634 f63a cc8e 053b a621 ba3b 8b65 383a
00000040: 3846 d8bb 1356 8bbb 9ea1 b6bb aac2 bdba
00000050: 1f4e 9c3a 3263 5abb 3df4 a9bb 35ad 783c
00000060: 96c8 8abc 5bdf 2ebc 4c2a f7bb d9ec c73b
00000070: 1e15 373a 1ae3 2d3c 3112 f7bb 7614 f43b
00000080: 29fe 28bc b317 173b 2d21 7c3b 4023 853a
00000090: 3408 a9bb 5006 e5ba 62d4 e83b 74ce f33b
000000a0: b12c b1bb 787d fb3b e532 043b 661c c3bb
000000b0: fc87 e5bb 8103 a33b de7f 083b 1f70 a639
000000c0: 8d4c 1a3c 0520 813b 3ad3 2c3b 93c5 2b3a
000000d0: e329 b2bb 4c9a 153c 46f4 98ba 2335 95bb
000000e0: 87cc 1dbb b0cd 7c3b 092b 8c39 1386 81bb
000000f0: 5545 ffbb b164 02bc cfff 06bc 45af cfb9
00000100: 1250 82bb c650 9a3b 5120 1fb9 773a 7aba
00000110: b57e 2eb9 021b 983b a333 72bb f3d5 c0bb
00000120: 5448 afba 6534 30bb c895 933b 9e85 8fbb
00000130: c17b 3db9 fe71 8ebb 9ece 67bb e8ce 46ba
00000140: a1bb 27bc 3638 4138 24d9 d63b c6f9 1138
00000150: aa27 933c dcff 083b cb2b 4bbb 94b3 36bc
00000160: bb11 0dbb 9996 bc3b 19f2 583b b337 9aba
00000170: 5a94 5739 10da 163b 51ad abbb 0f94 bf3b
00000180: b156 cbbb 1cb8 a5bb 646a 843b 2ed2 b7bc
00000190: 1c54 bbbc d2a4 0abb 85c9 4cbb a5a7 363a
000001a0: 2993 a8bb 92dd 3ebb 081c a8b9 d8b6 abbc
000001b0: 45c6 3b3c 5c74 38bc 1e9b 563a 66a8 17bc
000001c0: d261 48bc 635c 5bbc a745 8dbb bcd8 f2bb
000001d0: 905b 85bb 9c7e 9f3b 08c9 163b 6aa6 0c3c
000001e0: 6eb6 2e3c 0152 adb9 531f eebb cc4b 5abb
000001f0: 96a1 573b ae7b 673b 7446 bfbb 7550 063c

backbone.layers.0.att_r.weight f4 [1, 128]
-0.0010037776 0.0019168644 -0.0019028812 -0.0007598009 -0.009150059 0.004205239 0.0035024113 0.00100986
0.0016815317 -0.0029810572 -0.0009750968 0.00087563664 -0.0035759273 0.0001159024 0.0012356152 0.0069922535
0.0030201587 -0.003650049 -0.004196583 0.0015257527 -0.005081901 -0.00037519328 -0.0019236166 0.0046919654
0.0027971384 0.008862786 0.0039639845 0.0055500693 0.005663123 -0.011544951 0.002235094 -9.721859e-06
0.0018618294 -0.0019719354 -0.0073417295 0.0063903304 0.0029879734 -0.002140457 0.0014209397 0.0020423015
0.0033056503 -0.0008714021 0.0019639009 0.005383876 0.000560286 -0.0057007126 0.009423487 -4.186804e-05
-0.008163271 0.00031720076 0.0020007275 -0.0022647292 -0.0012175358 -0.0018934249 0.0022296484 -0.0032050286
0.0012278802 -0.0022056734 -0.004898561 -0.0024345845 0.0031249735 0.0031639407 0.005940999 -0.001114194
0.0048060105 -0.00053874106 0.00458473 -0.00070676376 -0.007046125 0.002902001 -0.0048516835 0.0040631155
0.0030937986 -0.0010119231 0.0050809 -0.004458683 -0.0028668656 0.0045522572 -0.0042367345 -0.0002642846
0.008190122 -0.009782218 0.0020233253 0.0008986019 0.004974547 0.0068159094 0.0017083018 0.005251726
0.004818259 0.003301218 0.0024975247 -0.0016090148 -0.00614748 0.0028792492 0.00442433 0.0032038619
0.005400519 0.004526766 -0.0046035615 -0.018039592 0.004055398 -0.0015757439 0.0010991935 0.0030474793
0.0038509553 0.0009068515 -0.0027826144 0.0060480656 -0.015569556 0.0026922792 -0.0048364457 0.0057371566
0.008963264 0.0068664476 0.002245063 0.002326083 0.00238161 0.0022927318 -0.0027950827 4.737605e-05
0.0033499396 0.0015706859 -0.00023001814 0.0015719486 -0.0030148935 -0.0020898422 -0.00037740538 0.0033427433
00000000: 3091 83ba 4c3f fb3a 196a f9ba 602d 47ba
00000010: 21ea 15bc 1acc 893b b688 653b 475d 843a
00000020: d766 dc3a d75d 43bb a39d 7fba fb8a 653a
00000030: 1b5a 6abb a110 f338 5ef4 a13a 461f e53b
00000040: dbed 453b a935 6fbb 7d83 89bb c4fb c73a
00000050: 1386 a6bb 97b5 c4b9 dd21 fcba 0fbf 993b
00000060: 3250 373b 3835 113c 50e4 813b 5bdd b53b
00000070: b891 b93b 0927 3dbc a87a 123b 111b 23b7
00000080: a108 f43a 963b 01bb e492 f0bb fa65 d13b
00000090: e0d1 433b e946 0cbb d33e ba3a 22d8 053b
000000a0: 9ca3 583b ce6e 64ba cab4 003b 3a6b b03b
000000b0: 28e0 123a 0bcd babb f864 1a3c 779b 2fb8
000000c0: 3dbf 05bc f74d a639 a31e 033b da6b 14bb
000000d0: b995 9fba cc2c f8ba 4b1f 123b 750b 52bb
000000e0: d3f0 a03a 0f8d 10bb 1c84 a0bb 8d8d 1fbb
000000f0: 5bcc 4c3b 1e5a 4f3b b6ac c23b 260a 92ba
00000100: bd7b 9d3b 4d3a 0dba 813b 963b 1d46 39ba
00000110: 2ee3 e6bb 7f2f 3e3b dffa 9ebb e223 853b
00000120: 54c1 4a3b 81a2 84ba ae7d a63b 251a 92bb
00000130: 06e2 3bbb 1a2b 953b 4ed4 8abb ae8f 8ab9
00000140: dd2f 063c 9945 20bc c499 043b 2790 6b3a
00000150: 8601 a33b fe57 df3b 19e9 df3a ac16 ac3b
00000160: 7ce2 9d3b 3f59 583b 83ad 233b 94e5 d2ba
00000170: cd70 c9bb c9b1 3c3b f8f9 903b e2f7 513b
00000180: d6f6 b03b 4455 943b 79d9 96bb c4c7 93bc
00000190: 25e3 843b 3189 ceba d012 903a 38b8 473b
000001a0: 4f60 7c3b c6b9 6d3a 865c 36bb da2e c63b
000001b0: 7317 7fbc f370 303b 0c7b 9ebb c2fe bb3b
000001c0: a7da 123c f0ff e03b e821 133b 3271 183b
000001d0: c914 1c3b a841 163b b52d 37bb a5b5 4638
000001e0: a98a 5b3b 79df cd3a 0631 71b9 d809 ce3a
000001f0: 8595 45bb bcf5 08bb 7ede c5b9 ed11 5b3b

backbone.layers.1.att_l.weight f4 [1, 128]
0.0006324321 0.0132348025 -0.009444502 -0.010914241 0.051283058 -0.05484933 -0.014553836 -0.01072986
-0.025325656 0.013002461 0.056371126 0.03591606 0.010710891 -0.0053422777 0.0227322 0.0475564
-0.0015516493 0.0029305986 0.011050075 0.0053553446 -0.01981382 -0.02954923 -0.018459503 0.13743304
-0.026214192 -0.04760833 0.012558628 0.06405828 0.04579377 -0.26622564 -0.045169402 0.060110107
-0.0797175 0.009366596 -0.08532637 0.05784438 -0.008134783 -0.019170668 0.031260546 0.026649902
0.0036627632 0.05869408 0.010400218 0.019706352 0.019853536 -0.019118894 0.02780282 0.019078033
0.0918633 -0.02256989 0.013343526 0.14850469 -0.039281044 0.043888777 -0.006061906 -0.043317877
0.009146641 0.006433059 0.05329149 0.012609877 -0.04049485 -0.057543777 0.016727375 0.029864734
-0.041137714 0.009719609 -0.019218193 -0.03649569 -0.016953338 -0.03837413 -0.0034938944 -0.052440565
-0.021508852 -0.006816403 0.015658207 -0.019963512 0.13077995 -0.027248343 -0.049979024 0.0021496299
-0.11683245 -0.023422716 -0.009058481 -0.013393149 0.11743215 0.0086473385 0.028758047 -0.16102466
0.0011092917 -0.010227227 -0.015114452 -0.0018331115 0.013636538 0.005970045 -0.040639836 -0.067580275
-0.03692777 -0.10217801 0.0037960433 -0.2941183 0.10873729 -0.021872211 -0.0077174203 0.002676693
-0.019152183 0.0049966276 -0.0013665339 -0.054576714 -0.1956387 -0.09416244 -0.021386152 -0.021668
-0.005699244 -0.004646517 -0.05934673 -0.07187476 -0.028729288 0.0037914028 0.056043234 0.06685362
0.07818761 -0.018945085 -0.02543687 -0.04357991 -0.033055518 -0.7219463 -0.04805855 0.019011274
00000000: cdc9 253a c9d6 583c 1dbd 1abc a5d1 32bc
00000010: 2f0e 523d b1a9 60bd 3673 6ebc 4bcc 2fbc
00000020: c077 cfbc 4608 553c 69e5 663d b81c 133d
00000030: bc7c 2f3c 460e afbb e138 ba3c 80ca 423d
00000040: b660 cbba 490f 403b 600b 353c e37b af3b
00000050: 9850 a2bc 3a11 f2bc 6238 97bc 3fbb 0c3e
00000060: 25bf d6bc f400 43bd b4c2 4d3c fd30 833d
00000070: 4092 3b3d ba4e 88be 8d03 39bd 0436 763d
00000080: ee42 a3bd 5a76 193c 98bf aebd 3bee 6c3d
00000090: c147 05bc ce0b 9dbc 0f0b 003d e550 da3c
000000a0: f80a 703b 3469 703d ad65 2a3c 376f a13c
000000b0: e2a3 a23c 3a9f 9cbc bdc2 e33c 8949 9c3c
000000c0: d322 bc3d 7de4 b8bc ce9e 5a3c 9d11 183e
000000d0: 29e5 20bd b8c4 333d f4a2 c6bb 166e 31bd
000000e0: cbdb 153c 69cc d23b 2d48 5a3d a899 4e3c
000000f0: eedd 25bd 06b3 6bbd d907 893c e3a6 f43c
00000100: 0580 28bd ff3e 1f3c 796f 9dbc 817c 15bd
00000110: bae1 8abc 312e 1dbd d2f9 64bb ebcb 56bd
00000120: 5533 b0bc 225c dfbb a445 803c 858a a3bc
00000130: 2eeb 053e eb37 dfbc ceb6 4cbd cee0 0c3b
00000140: da45 efbd ffe0 bfbc 066a 14bc f06e 5bbc
00000150: 4480 f03d 91ad 0d3c ff95 eb3c a6e3 24be
00000160: a765 913a 1990 27bc 9ba2 77bc 0445 f0ba
00000170: c96b 5f3c 5ea0 c33b f575 26bd 8767 8abd
00000180: 9341 17bd b442 d1bd 0ac7 783b ac96 96be
00000190: a8b1 de3d 5a2d b3bc 6ae2 fcbb 756b 2f3b
000001a0: 0ae5 9cbc c0ba a33b 451d b3ba d58b 5fbd
000001b0: 8355 48be 3dd8 c0bd 0332 afbc 1781 b1bc
000001c0: b9c0 babb cf41 98bb 8f15 73bd 1333 93bd
000001d0: af59 ebbc 2f79 783b 978d 653d 8dea 883d
000001e0: d320 a03d b932 9bbc fc60 d0bc d980 32bd
000001f0: 3965 07bd 79d1 38bf 0bd9 44bd 88bd 9b3c

backbone.layers.1.att_r.weight f4 [1, 128]
0.012633643 0.034068152 0.26834428 -0.041694287 -0.08406156 0.23414567 0.021630997 0.036109287
0.014752908 0.02677754 -0.101015 -0.0070447745 0.03800995 -0.0017460481 0.06362606 -0.05844775
-0.010446364 -0.10760653 -0.032693915 -0.017577011 0.01980198 -0.017792309 -0.061057504 -0.0023470074
-0.05633685 0.08445948 0.032061465 -0.03214359 0.02332427 0.48461056 0.051115636 0.06550601
0.029198047 0.12201241 0.43561476 0.005809148 -0.034816105 -0.025082957 -0.006897585 0.049344398
-0.10715044 0.041401125 -0.09689288 -0.005780211 -0.015403297 0.045202658 0.03270214 -0.018498903
0.081617825 -0.030190986 -0.009480711 -0.24955285 0.0332084 0.030808056 -0.017799603 -0.06004731
-0.025393227 0.029564992 0.07485224 0.018359188 -0.055874903 0.051217724 0.018070627 -0.01266954
0.0022117493 0.012833233 -0.0408352 0.032320973 0.02076219 0.03403899 -0.17893358 0.051546313
-0.008894047 -0.034631964 0.045403965 0.022865577 -0.22112024 0.028928304 0.011945598 -0.119595364
0.056994546 0.035045534 0.016620431 0.03351169 -0.012733269 0.0046955217 -0.022443987 0.1232927
0.0235911 0.04166657 0.0005303501 -0.042305186 -0.008384499 0.09484191 -0.0945217 0.07317336
0.09269564 -0.03376217 -0.033300877 0.08512183 -0.089427546 0.1182794 -0.07131475 -0.0011709902
-0.022820806 0.06058066 0.030532844 -0.035455026 0.51018924 0.019441515 -0.018857572 -0.008878748
-0.023279868 -0.055942517 0.15380488 0.09926689 0.024803035 0.10461532 0.07883986 0.03163648
0.058455937 0.059255272 -0.11395987 -0.030656645 0.039927 0.7001912 0.01982007 0.049386587
00000000: 57fd 4e3c 0c8b 0b3d 6c64 893e a1c7 2abd
00000010: 7828 acbd e2c3 6f3e 7d33 b13c 55e7 133d
00000020: 2eb6 713c 925c db3c f4e0 cebd dad7 e6bb
00000030: 52b0 1b3d a7db e4ba 614e 823d e866 6fbd
00000040: 3a27 2bbc d060 dcbd 0eea 05bd aafd 8fbc
00000050: c337 a23c 2dc1 91bc 6f17 7abd 40d0 19bb
00000060: 78c1 66bd 18f9 ac3d e252 033d ffa8 03bd
00000070: 8a12 bf3c e01e f83e a15e 513d 0428 863d
00000080: be30 ef3c a4e1 f93d e608 df3e aa5a be3b
00000090: 559b 0ebd c67a cdbc 2305 e2bb 5a1d 4a3d
000000a0: b171 dbbd 3a94 293d c66f c6bd ed67 bdbb
000000b0: 1c5e 7cbc 6c26 393d aef2 053d 038b 97bc
000000c0: 3f27 a73d 1653 f7bc fc54 1bbc c88a 7fbe
000000d0: 8805 083d 2d61 fc3c 79d0 91bc 2bf4 75bd
000000e0: 7505 d0bc 4832 f23c 224c 993d 0266 963c
000000f0: 15dd 64bd adc9 513d da08 943c e793 4fbc
00000100: fff2 103b 7b42 523c d042 27bd ff62 043d
00000110: 7815 aa3c 786c 0b3d 5d3a 37be 3a22 533d
00000120: 56b8 11bc 3fda 0dbd 82f9 393d 9750 bb3c
00000130: 586d 62be 0dfb ec3c 78b7 433c 6aee f4bd
00000140: 1d73 693d e88b 0f3d 9227 883c 8e43 093d
00000150: 339f 50bc e4dc 993b 74dc b7bc e280 fc3d
00000160: 1f42 c13c 91aa 2a3d 3107 0b3a 3448 2dbd
00000170: 235f 09bc 7a3c c23d 9894 c1bd eadb 953d
00000180: 36d7 bd3d 334a 0abd 8066 08bd 5b54 ae3d
00000190: ca25 b7bd 783c f23d 780d 92bd e97b 99ba
000001a0: b3f2 babc 6d23 783d 0420 fa3c 4a39 11bd
000001b0: c39b 023f d043 9f3c 327b 9abc 2b78 11bc
000001c0: 6cb5 bebc fb23 65bd 077f 1d3e 704c cb3d
000001d0: bc2f cb3c 8f40 d63d cb76 a13d 4195 013d
000001e0: 7e6f 6f3d a8b5 723d cb63 e9bd a523 fbbc
000001f0: 7e8a 233d bb3f 333f b35d a23c 9749 4a3d

backbone.t1.weight f4 [128, 100]
-0.013216158 -0.13627677 0.19520727 -0.2077808 0.15725444 0.0625581 0.11323359 -0.3095833
-0.5113031 0.30447802 0.35988057 0.4570011 0.3035497 -0.107372485 0.048953842 0.31411257
0.38741866 0.011859412 -0.11823016 -0.08386198 0.11308498 0.21405755 -0.04137233 0.0707776
-0.043265257 0.23254591 0.12013198 0.04228555 -0.10378282 -0.23362467 -0.03691437 -0.09955881
-0.1590831 -0.24029192 -0.16736904 -0.051450808 -0.19768709 0.09104962 0.04613182 -0.20798105
0.14590387 0.32128444 0.13733838 0.16335444 0.082059816 -0.068833895 -0.046655484 -0.03500069
-0.022245284 -0.068133704 -0.14909337 -0.008075923 -0.23372324 -0.31493554 -0.12950099 0.2620391
-0.037435155 -0.08806515 -0.16351436 -0.18889944 0.16935487 0.41120768 -0.027380046 -0.24590711
0.04183858 0.11819688 0.030752134 0.29646283 -0.14973606 0.18271121 0.03750191 0.036169533
0.3439012 -0.21483319 -0.2829729 0.13095555 0.17567855 -0.39226165 0.030213056 -0.085424356
0.13563362 -0.115766436 -0.03932826 0.0060306257 0.2513618 -0.06793099 -0.032620255 -0.40045378
-0.049126465 -0.29006037 -0.15453126 -0.22071664 0.42864183 -0.17562808 -0.16268826 -0.16265471
0.056279182 0.11843591 0.020288287 0.33294788 -0.010189316 0.074174106 -0.14426878 -0.003012296
0.32712686 -0.05898791 -0.1896346 0.3560196 -0.284347 -0.1228348 0.16783255 -0.7379196
0.39067665 0.34607366 -0.26859826 -0.03902655 0.013902184 -0.114268556 0.0032887973 -0.13392156
0.03912092 -0.21041648 -0.18924342 -0.34637257 -0.29631475 -0.13822687 -0.37804142 -0.09441524
-0.11507534 -0.19560635 0.3565043 -0.34216022 0.09666752 0.059724104 0.11019558 -0.06412658
0.6854624 -0.08439794 -0.11485575 0.16243461 -0.08410366 -0.16911723 0.09370899 0.34070787
0.13360183 0.24606872 -0.4307227 0.5096998 0.20230785 0.12508123 0.33842036 -0.008097547
0.17861713 0.118051134 -0.10298605 0.09733958 -0.33929113 0.08830168 0.18782064 -0.05027555
0.14604011 -0.07589598 -0.16184284 0.08939772 -0.062104747 0.16292079 0.049263857 0.064608596
0.13741122 0.19210486 0.1392455 0.07916621 0.089597255 -0.17063607 0.036173083 -0.31740826
0.32628247 0.18505746 0.04091172 -0.27296224 0.018780572 -0.0943902 -0.08208059 -0.17937046
0.1349518 0.012611657 0.19941883 0.15049197 -0.0719959 -0.049116608 -0.011415445 -0.051313203
-0.12647925 -0.14556408 -0.28861484 0.10757706 -0.073003255 0.26353234 0.065630525 0.05241938
0.3222064 -0.25470486 -0.2568557 0.22928798 0.37830377 0.28078634 -0.049236614 0.12242764
0.396012 -0.1611782 0.3970807 -0.018592108 -0.30400828 -0.03176414 0.24303448 -0.004290385
0.018484185 -0.2956208 0.08586923 0.07076155 0.19412692 0.10709007 0.3736604 0.20434284
0.085709505 -0.21561693 0.05310302 0.15021266 -0.10596904 -0.004716181 0.031675164 0.28583926
-0.29750678 -0.16940685 -0.24434872 0.27356085 0.24088977 -0.12422737 0.19383016 0.10605613
0.30697462 0.03912772 -0.048573878 -0.17465134 -0.07377501 -0.0867626 0.100027815 0.017102141
0.056066025 0.046911903 -0.21861647 0.1228431 0.058632582 -0.061754055 0.06557502 0.07561803
00000000: 9688 58bc 238c 0bbe 6ae4 473e 7dc4 54be
00000010: 4f07 213e 761e 803d 03e7 e73d b481 9ebe
00000020: c3e4 02bf 8be4 9b3e 4442 b83e 0cfc e93e
00000030: de6a 9b3e 1be6 dbbd d383 483d 5dd3 a03e
00000040: bd5b c63e fb4d 423c a722 f2bd d4bf abbd
00000050: 1999 e73d e731 5b3e 0876 29bd d9f3 903d
00000060: e936 31bd 8420 6e3e c107 f63d 9d33 2d3d
00000070: 168c d4bd 4e3b 6fbe 8633 17bd 7de5 cbbd
00000080: aee6 22be 160f 76be ca62 2bbe 15be 52bd
00000090: 7c6e 4abe 3978 ba3d b8f4 3c3d fcf8 54be
000000a0: d367 153e 657f a43e 6fa2 0c3e 6346 273e
000000b0: fa0e a83d c9f8 8cbd d219 3fbd e25c 0fbd
000000c0: be3b b6bc af89 8bbd efab 18be e050 04bc
000000d0: 2555 6fbe 3b3f a1be e89b 04be fd29 863e
000000e0: 9b55 19bd 805b b4bd 4f70 27be db6e 41be
000000f0: 5d6b 2d3e d089 d23e 1e4c e0bc 13cf 7bbe
00000100: ee5e 2b3d 3511 f23d e6eb fb3c fac9 973e
00000110: 6954 19be a618 3b3e 9a9b 193d 8126 143d
00000120: d113 b03e 3bfd 5bbe d3e1 90be 3619 063e
00000130: 14e5 333e 85d6 c8be 5f81 f73c f7f2 aebd
00000140: 8ae3 0a3e f416 edbd ab16 21bd 8e9c c53b
00000150: 7eb2 803e 671f 8bbd d19c 05bd 4708 cdbe
00000160: d538 49bd cb82 94be 713d 1ebe 8b03 62be
00000170: f176 db3e d9d7 33be c097 26be f58e 26be
00000180: 0085 663d 878e f23d 9f33 a63c 2578 aa3e
00000190: 17f1 26bc 98e8 973d 32bb 13be f169 45bb
000001a0: 2c7d a73e 4f9d 71bd 932f 42be 3348 b63e
000001b0: ee95 91be d090 fbbd 4cdc 2b3e 4de8 3cbf
000001c0: c506 c83e 9130 b13e b685 89be 4eda 1fbd
000001d0: fcc5 633c a205 eabd dd88 573b bc22 09be
000001e0: 423d 203d 6b77 57be 07c9 41be bf57 b1be
000001f0: 91b6 97be 588b 0dbe a58e c1be c75c c1bd
00000200: 9fac ebbd 084d 48be bb87 b63e a02f afbe
00000210: 9ff9 c53d 43a1 743d 38ae e13d cc54 83bd
00000220: 777a 2f3f d4d8 acbd 7e39 ebbd 4255 263e
00000230: 8a3e acbd 112d 2dbe 80ea bf3d 4371 ae3e
00000240: ebce 083e 70f9 7b3e b087 dcbe b07b 023f
00000250: ca29 4f3e 4b15 003e 6f45 ad3e 93ab 04bc
00000260: 69e7 363e cbc4 f13d 5aea d2bd f959 c73d
00000270: 91b7 adbe 83d7 b43d 0e54 403e bced 4dbd
00000280: 8a8b 153e 5a6f 9bbd 21ba 25be 2716 b73d
00000290: 8c61 7ebd b5d4 263e e6c8 493d 8351 843d
000002a0: 87b5 0c3e 23b7 443e 5f96 0e3e e521 a23d
000002b0: c47e b73d 39bb 2ebe 3a2a 143d 5683 a2be
000002c0: 7f0e a73e b47f 3d3e 0c93 273d b5c1 8bbe
000002d0: b7d9 993c a64f c1bd de19 a8bd e4ac 37be
000002e0: ce30 0a3e 20a1 4e3c 7334 4c3e 911a 1a3e
000002f0: 9672 93bd 7f2e 49bd d907 3bbc cb2d 52bd
00000300: c783 01be c00e 15be 53c5 93be 5d51 dc3d
00000310: bb82 95bd b6ed 863e 4c69 863d b4b5 563d
00000320: 3df8 a43e ad68 82be 9782 83be 78ca 6a3e
00000330: 08b1 c13e 3ac3 8f3e 55ac 49bd 58bb fa3d
00000340: 16c2 ca3e e60b 25be 294e cb3e 7a4e 98bc
00000350: f9a6 9bbe 1d1b 02bd 08de 783e 5c96 8cbb
00000360: 256c 973c 9c5b 97be 35dc af3d 6eeb 903d
00000370: 35c9 463e 0a52 db3d 6a50 bf3e 403f 513e
00000380: 7788 af3d afca 5cbe 8d82 593d 59d1 193e
00000390: 4c06 d9bd 328a 9abb d1bd 013d 8659 923e
000003a0: cf52 98be fd78 2dbe 8d36 7abe 2b10 8c3e
000003b0: cfab 763e eb6a febd 6a7b 463e f533 d93d
000003c0: c72b 9d3e 6344 203d 67f5 46bd cdd7 32be
000003d0: 5a17 97bd 97b0 b1bd 62db cc3d ca19 8c3c
000003e0: 7da5 653d b226 403d ffdc 5fbe 2a95 fb3d
000003f0: b828 703d d2f1 7cbd 324c 863d a0dd 9a3d

backbone.t1.bias f4 [128]
-0.03898843 -0.05744734 0.034686472 -0.46123526 -0.99018747 0.019743474 0.0080417115 0.010622354
0.014309382 -0.00059380446 -0.118027635 -0.27942902 -0.085912645 -0.08578129 0.00841434 -0.3984327
-0.13394055 -1.3852543 0.0047356645 -0.16296963 -0.12590739 -0.17964399 0.0070790974 -0.011017367
0.019135114 0.017172273 0.011232391 -0.00048139802 0.0066462955 0.04775781 0.016269734 -0.06921788
0.008147738 0.018027967 0.041026395 0.0014071511 -0.106974296 -0.62941384 0.0021095714 0.008215241
-0.6854024 -0.050066892 -0.6795578 0.0101727825 0.019907994 -0.20011832 -0.021473002 -0.31875983
-0.09149622 -0.49771202 -0.0017952076 -0.32881194 -0.033980884 0.0017139524 -0.17625947 -0.6642153
-0.25804913 0.0039486787 0.0096723335 0.00851068 -0.45223784 0.0020319321 0.01737981 -0.07251136
-0.24418704 -0.009477854 -0.08433261 0.0050203134 -0.006087031 -0.1739498 -0.8075248 0.017625727
-0.0015243648 -0.0063795014 0.010030684 0.012694822 -0.1359723 -0.16431329 -0.39136723 -0.58601576
0.019149022 0.0071488502 -0.06577967 -0.0025259093 0.0024078868 0.0068864427 0.0076905587 -0.032554645
-0.060384996 0.010423976 -0.077898785 -0.5091752 -0.09026191 0.004133415 -0.36496395 -0.1968538
0.0066325427 0.0050920155 0.0148038855 -1.3617119 -0.08420484 0.013836 -0.84130126 -0.22222517
-0.22282505 0.00914501 -0.09265412 -0.07867006 0.022536311 0.005516334 -0.09492709 -0.00063851767
0.0114647485 0.01748439 0.019658845 0.009889706 0.0039330684 -0.050673034 0.028794838 0.0029119218
0.003647542 -0.07216492 -0.63454866 0.019034885 -0.029383825 0.02059733 -0.063826814 0.009488994
00000000: 55b2 1fbd e74d 6bbd 6713 0e3d 0727 ecbe
00000010: ed7c 7dbf 11bd a13c 62c1 033c 6209 2e3c
00000020: e671 6a3c 8ba9 1bba 79b8 f1bd 5211 8fbe
00000030: f8f2 afbd 1aae afbd 4ddc 093c 5fff cbbe
00000040: b627 09be 0350 b1bf a22d 9b3b 83e1 26be
00000050: deed 00be 98f4 37be c6f7 e73b 3082 34bc
00000060: 3ec1 9c3c deac 8c3c 1008 383c 2664 fcb9
00000070: 2bc9 d93b b29d 433d 1b48 853c 1bc2 8dbd
00000080: 177e 053c 63af 933c 4b0b 283d 2870 b83a
00000090: 5715 dbbd 4421 21bf bc40 0a3b 3899 063c
000000a0: 8876 2fbf f112 4dbd 80f7 2dbf beab 263c
000000b0: 1716 a33c d1eb 4cbe 26e8 afbc 7d34 a3be
000000c0: 5f62 bbbd 1cd4 febe 2c4d ebba 0a5a a8be
000000d0: 8a2f 0bbd b3a6 e03a 5d7d 34be 040a 2abf
000000e0: 041f 84be eb63 813b b578 1e3c 6170 0b3c
000000f0: b88b e7be 2a2a 053b 1a60 8e3c d680 94bd
00000100: 2b0c 7abe 0049 1bbc 93b6 acbd 7181 a43b
00000110: b875 c7bb e51f 32be f2b9 4ebf d463 903c
00000120: 32cd c7ba 230b d1bb bd57 243c f1fd 4f3c
00000130: 533c 0bbe be41 28be 4961 c8be 2105 16bf
00000140: 69de 9c3c e740 ea3b 7eb7 86bd ba89 25bb
00000150: a3cd 1d3b aba7 e13b 1501 fc3b 0558 05bd
00000160: 4256 77bd 53c9 2a3c 6689 9fbd 4e59 02bf
00000170: 3cdb b8bd 9971 873b 8edc babe 0b94 49be
00000180: cd55 d93b ecda a63b ff8b 723c 934c aebf
00000190: 9673 acbd 64b0 623c 855f 57bf ff8e 63be
000001a0: 402c 64be f4d4 153c 71c1 bdbd c51d a1bd
000001b0: 129e b83c 5dc2 b43b 2269 c2bd 3262 27ba
000001c0: a4d6 3b3c 6c3b 8f3c 960b a13c 6f08 223c
000001d0: f8e0 803b 878e 4fbd 27e3 eb3c f1d5 3e3b
000001e0: 9a0b 6f3b 34cb 93bd c871 22bf 0cef 9b3c
000001f0: 59b6 f0bc bbbb a83c a2b7 82bd ba77 1b3c

backbone.t2.weight f4 [128, 128]
0.035934802 -0.013185597 0.11384751 0.10923644 0.0983526 -0.227996 -0.06691408 0.2341445
-0.17424229 -0.24529247 -0.029895816 -0.1318237 -0.21048363 0.30210057 0.12061001 -0.2734835
-0.42040637 -0.33697006 0.14901754 0.11437165 0.31485757 0.06770502 -0.0677394 0.01197779
0.20151094 0.14123504 0.08008102 -0.1782869 0.12893727 -0.0014309167 0.14074466 -0.28843072
-0.04399857 -0.031023774 0.05548625 -0.08580412 -0.054235652 0.03368889 0.2482181 0.08572786
0.35573503 -0.110642105 0.1439903 0.0724503 -0.024738248 -0.13283105 -0.102220304 0.3387408
0.1392286 0.00091473514 -0.067191705 0.45485643 -0.116278514 0.0073409528 0.04405888 0.25371656
-0.26555336 -0.02778741 0.11269176 -0.3122328 0.20398527 -0.16737652 0.019558165 -0.012226535
0.004240301 -0.12811445 0.14009331 0.1685495 0.05928496 -0.106845744 -0.43570235 0.004930721
0.1736578 -0.038631137 0.17627005 -0.15972918 0.13476062 -0.12670267 0.18261792 0.56003934
-0.0059055197 -0.32938766 0.039280534 0.044695843 -0.038404778 0.26222593 0.01754907 -0.50159883
0.07638918 -0.074106805 -0.02062024 -0.037509672 0.11788237 0.022095202 -0.012896258 -0.4325561
-0.1406174 0.19497202 0.026143752 0.12183118 -0.3306306 0.0026127328 -0.21862434 0.45811298
0.057469066 -0.24167612 -0.054070033 0.032147884 -0.1820248 -0.20061429 -0.14225355 0.084273204
-0.118314765 0.19258545 -0.112967595 -0.1945839 0.11333473 0.048857894 -0.35825235 -0.013880677
-0.08848981 0.16156259 -0.12642965 0.007828207 -0.0007171403 0.016394885 0.085925214 -0.0782093
-0.11814805 -0.11646422 -0.11179532 0.2972344 -0.097975016 -0.11546046 -0.037928596 -0.10066312
-0.17315821 -0.07978771 0.38124284 0.23673263 0.047381554 -0.07340537 -0.20816962 0.042949002
-0.15297344 -0.13943027 0.027598577 0.07311159 -0.16698633 0.037495945 0.07771125 0.00069724495
0.05791358 0.059024785 0.043400016 -0.14137633 0.1160074 0.032700382 -0.042174846 0.1845194
-0.18265416 0.027124709 0.17086361 -0.15114504 0.10216614 -0.0042119185 0.07362815 -0.046910416
-0.060053654 0.1237861 -0.24234882 0.114985034 -0.049630336 0.39572534 0.07071617 -0.131862
-0.090393074 0.15318464 0.02476542 -0.19082536 0.274765 0.33729222 0.20111327 0.3280191
-0.12686837 -0.13921653 -0.09932966 0.17900598 0.09302935 -0.29469734 -0.048358507 0.535162
0.014354669 0.24953763 -0.026595116 0.00878519 -0.010207443 0.09292885 -0.14174451 -0.06301235
-0.1653284 0.14263749 0.09064654 0.13422135 -0.21183877 -0.17609924 0.36261323 -0.024097467
-0.21525408 0.34865674 0.09431169 -0.058548465 -0.11582058 -0.23703316 -0.1624416 0.05513064
-0.09441333 0.39333984 0.33185598 0.1620649 -0.15656869 0.29532763 0.27656516 0.6707176
0.026213268 -0.11375318 -0.272617 0.04805818 0.48692164 -0.19706227 -0.036828477 -0.013816409
-0.21263562 -0.18985486 -0.016039297 -0.14589624 0.21498181 -0.20615256 0.038052034 -0.16375259
-0.2142525 -0.09874824 0.07200673 -0.043938443 -0.07980907 -0.10681807 0.11420365 -0.016762132
-0.24183413 -0.20339377 -0.14685073 -0.14692238 -0.071641155 0.028765649 -0.17490101 -0.0021771833
00000000: 5f30 133d 6708 58bc e228 e93d 5bb7 df3d
00000010: 176d c93d c977 69be 400a 89bd 93c3 6f3e
00000020: 926c 32be f32d 7bbe 12e8 f4bc cbfc 06be
00000030: 0589 57be edac 9a3e 6202 f73d 0806 8cbe
00000040: 813f d7be 5787 acbe 0e98 183e af3b ea3d
00000050: 0335 a13e eea8 8a3d f4ba 8abd 7e3e 443c
00000060: e258 4e3e eb9f 103e 8501 a43d d790 36be
00000070: 2208 043e 998d bbba 5e1f 103e 31ad 93be
00000080: d837 34bd 9225 febc 8d45 633d 12ba afbd
00000090: 3426 5ebd 5dfd 093d e32c 7e3e 1792 af3d
000000a0: e722 b63e 5498 e2bd 3172 133e d360 943d
000000b0: dea7 cabc dd04 08be e158 d1bd 6f6f ad3e
000000c0: f191 0e3e d6ca 6f3a ce9b 89bd f1e2 e83e
000000d0: 6e23 eebd 608c f03b 1677 343d 23e7 813e
000000e0: 9cf6 87be 6ca2 e3bc f0ca e63d fadc 9fbe
000000f0: 84e1 503e c064 2bbe 7238 a03c ce51 48bc
00000100: 39f2 8a3b 6f30 03be 9f74 0f3e 3d98 2c3e
00000110: c9d4 723d f1d1 dabd 6114 dfbe e391 a13b
00000120: 5ad3 313e af3b 1ebd 2380 343e 0c90 23be
00000130: b0fe 093e 58be 01be 3100 3b3e bd5e 0f3f
00000140: 1783 c1bb 80a5 a8be a0e4 203d fd12 373d
00000150: 544e 1dbd 7a42 863e 11c3 8f3c c868 00bf
00000160: ee71 9c3d 4fc5 97bd c7eb a8bc bea3 19bd
00000170: 506c f13d ff00 b53c d44a 53bc fe77 ddbe
00000180: 02fe 0fbe bfa6 473e 6c2b d63c a082 f93d
00000190: 6a48 a9be 623a 2b3b 0fdf 5fbe c98d ea3e
000001a0: af64 6b3d f279 77be 8a78 5dbd 80ad 033d
000001b0: b664 3abe d56d 4dbe eaaa 11be 6e97 ac3d
000001c0: 034f f2bd 1f35 453e 8e5b e7bd 0041 47be
000001d0: 0a1c e83d 371f 483d da6c b7be c76b 63bc
000001e0: 253a b5bd aa70 253e c676 01be e141 003c
000001f0: 79fe 3bba 914e 863c 8ff9 af3d 332c a0bd
00000200: 9bf7 f1bd cb84 eebd f2f4 e4bd 1b2f 983e
00000210: 20a7 c8bd 8976 ecbd 045b 1bbd 7728 cebd
00000220: 6350 31be bd67 a3bd 4332 c33e 0a6a 723e
00000230: 2913 423d 8e55 96bd 6b2a 55be 4beb 2f3d
00000240: 12a5 1cbe cfc6 0ebe 6916 e23c 88bb 953d
00000250: 77fe 2abe 5995 193d 1327 9f3d 51c7 363a
00000260: ca36 6d3d f9c3 713d 37c4 313d f5c4 10be
00000270: 4a95 ed3d d6f0 053d 88bf 2cbd a7f2 3c3e
00000280: b109 3bbe a334 de3c dff6 2e3e c4c5 1abe
00000290: 7b3c d13d 2204 8abb 5bca 963d 2325 40bd
000002a0: d2fa 75bd 9183 fd3d 4a2a 78be 467d eb3d
000002b0: 2e49 4bbd 839c ca3e a4d3 903d d506 07be
000002c0: 0120 b9bd 6fdc 1c3e dae0 ca3c b967 43be
000002d0: 00ae 8c3e 91b1 ac3e a3f0 4d3e 1ff2 a73e
000002e0: c8e9 01be c78e 0ebe 596d cbbd 584d 373e
000002f0: 2c86 be3d 92e2 96be 9213 46bd 6000 093f
00000300: d82f 6b3c cb86 7f3e 00de d9bc c2ef 0f3c
00000310: 1e3d 27bc 7b51 be3d 7925 11be 9e0c 81bd
00000320: d94b 29be 900f 123e e5a4 b93d 5271 093e
00000330: 43ec 58be 5c53 34be 71a8 b93e 0d68 c5bc
00000340: 916b 5cbe 2383 b23e 7d26 c13d 84d0 6fbd
00000350: 5733 edbd d2b8 72be 1757 26be aad0 613d
00000360: c75b c1bd d763 c93e 07e9 a93e 57f4 253e
00000370: 8b53 20be 2f35 973e f399 8d3e 26b4 2b3f
00000380: 35bd d63c 6df7 e8bd 7594 8bbe a7d8 443d
00000390: cb4d f93e b1ca 49be 75d9 16bd 385e 62bc
000003a0: 27bd 59be 5069 42be d864 83bc d365 15be
000003b0: 3124 5c3e a819 53be 73dc 1b3d c2ae 27be
000003c0: 0265 5bbe 843c cabd 4478 933d ccf8 33bd
000003d0: f072 a3bd 6fc3 dabd 9ae3 e93d bd50 89bc
000003e0: 5ea3 77be 7546 50be 0a60 16be d272 16be
000003f0: 99b8 92bd f0a5 eb3c 4019 33be 13af 0ebb

backbone.t2.bias f4 [128]
0.0022287166 0.0027222123 0.0012338177 0.0037115577 0.0021295699 0.0016413268 -0.0023569595 -0.0030529755
0.00046590462 -0.0011046828 0.000161708 0.0010127021 -0.0009400991 0.00074007554 0.0014570032 0.0037780455
0.00021004085 -0.0032508837 -0.0028853202 0.0040123854 -0.0010181319 7.391827e-05 0.004526951 0.00026885574
-0.0030072893 0.0027824373 0.0061782342 0.0010770442 -0.0019733473 -0.0017489675 0.0030391966 0.0005082274
-0.00057496544 -0.0019914573 -0.0026801042 0.0037165154 0.003726167 -0.0010034514 -0.00047463222 -0.00225071
-0.004342284 0.0009148105 -0.0059485715 0.0015646624 0.000741166 -0.0030212703 0.0032066356 -0.0019707077
-0.00033237526 -0.0029195433 -0.00032862058 0.003562794 0.0043428903 -0.00048264177 -0.00045869133 0.0025070328
0.0002633102 -0.004148458 -5.52072e-05 0.0020194547 0.0036534753 -0.001000572 -0.002928331 -0.002580987
0.0012547026 0.0023481555 -0.001183118 -0.0014751722 0.0025281666 -0.0051344456 0.0035437306 -0.0043987795
-0.0022668133 0.0010892731 0.001967099 0.0042934082 0.0037233247 0.001934999 -0.00016100559 -0.0018181505
0.0040305387 0.0005366273 -0.0018322903 0.002964926 0.0023970322 -0.0013649497 0.004345477 0.003062448
-0.0013652645 -0.0007413314 0.0029788907 0.002745852 -0.00029130458 0.000396275 0.00513141 -0.0020049524
-0.0021384822 -0.004854679 0.00051951996 -0.0035172652 -0.00010872623 0.0025226017 -0.0010769432 -0.0015953534
0.0016150451 -0.0037883646 -0.0026356224 0.0039366065 0.0017678885 0.0010344071 -0.0017053566 0.0022981665
-0.0022685947 0.0013798781 -0.00020425496 0.0007909656 0.0018763567 0.0015438907 -0.005757331 0.00077717804
-0.0036112135 0.00030610547 0.003427234 0.00034927306 -0.0037451654 0.0027420644 -0.0019261622 0.0025486713
00000000: a90f 123b 2567 323b 0db8 a13a 9b3d 733b
00000010: 4190 0b3b ca21 d73a 3877 1abb 6e14 48bb
00000020: a944 f439 01cb 90ba 2990 2939 a5bc 843a
00000030: fc70 76ba a101 423a eaf8 be3a 1699 773b
00000040: 693e 5c39 c70c 55bb a417 3dbb 547a 833b
00000050: d672 85ba 9204 9b38 d156 943b 35f5 8c39
00000060: f115 45bb 8d59 363b c972 ca3b 9b2b 8d3a
00000070: 4653 01bb 9c3d e5ba 422d 473b 903a 053a
00000080: 47b9 16ba 1c83 02bb b0a4 2fbb c890 733b
00000090: b532 743b 3e86 83ba 0fd8 f8b9 a680 13bb
000000a0: b849 8ebb e5cf 6f3a 3cec c2bb 5c15 cd3a
000000b0: cf4a 423a 8100 46bb 6b26 523b fd26 01bb
000000c0: a742 aeb9 cf55 3fbb b54a acb9 c47d 693b
000000d0: ce4e 8e3b 150b fdb9 827c f0b9 084d 243b
000000e0: e60c 8a39 caef 87bb 488e 67b8 d458 043b
000000f0: 256f 6f3b a025 83ba 3ee9 3fbb c725 29bb
00000100: d574 a43a 83e3 193b da12 9bba 915a c1ba
00000110: 99af 253b da3e a8bb ef3d 683b a323 90bb
00000120: d18e 14bb f1c5 8e3a 72ea 003b b8af 8c3b
00000130: 0603 743b cb9f fd3a 9cd3 28b9 024f eeba
00000140: 9c12 843b 73ac 0c3a 7629 f0ba 344f 423b
00000150: 8717 1d3b 1de8 b2ba 8164 8e3b 5ab3 483b
00000160: adf2 b2ba e855 42ba 7e39 433b c1f3 333b
00000170: 3dba 98b9 21c3 cf39 6325 a83b 8565 03bb
00000180: c725 0cbb 0014 9fbb 6530 083a eb81 66bb
00000190: f303 e4b8 3c52 253b 3828 8dba 2d1b d1ba
000001a0: ecaf d33a 3646 78bb 68ba 2cbb a6fe 803b
000001b0: 7fb8 e73a f194 873a 4686 dfba d69c 163b
000001c0: b4ac 14bb 07dd b43a 462d 56b9 ce58 4f3a
000001d0: 15f0 f53a 605c ca3a fea7 bcbb 89bb 4b3a
000001e0: 1caa 6cbb c87c a039 729b 603b a31e b739
000001f0: 7371 75bb 35b4 333b 4777 fcba 9c07 273b
